ML1/Break.pt (torch, 8859 bytes, 5 tensors)

WF_Features.weight f8 [3, 1, 51]
0	0xbfe7c850bd5a87bf	-0.7432025621712838
1	0x3f958044685d451b	0.020997113103765046
2	0xbfe527384be3e1a1	-0.6610375864248007
3	0xbfcd856f85d07f29	-0.23063463243396967
4	0x3fb79ce647e93244	0.09223784690511488
5	0xbfd37205f5e89313	-0.3038344289255274
6	0xbfb78230b6b04412	-0.09183029613656427
7	0xbfee81d7f2a43fcc	-0.95335004225671
8	0xbfd13cd44f788cf3	-0.2693377281268134
9	0xbfd8464bd7bd57c8	-0.3792905432541116
10	0xbfd7e143182475fa	-0.3731239066854354
11	0xbfc3eac22af27ce8	-0.15560175988227987
12	0xbfe3d55b590e4565	-0.6197945346231505
13	0xbfda2f9d9f067af9	-0.40915623216453373
14	0xbfd3204f0fb842ff	-0.2988469747079278
15	0x3f8fe9358a741376	0.015581529891741868
16	0xbfe1927cff3b4520	-0.5491318688383764
17	0x3fcf4860d5c91c00	0.2443963092684669
18	0x3f73229acb13de39	0.004671673451631935
19	0x3fe3fa00a756788d	0.6242678898158985
20	0x3f9cfe0d87aa33a2	0.028312884717297877
21	0x3fc14a7ddedea796	0.13508580572425605
22	0x3fc55715c77fac91	0.16672012559078955
23	0x3fc49605a93f203c	0.16082831157678068
24	0xbfc8c78bef0215c3	-0.19358967943496283
25	0x3fd4d26494c2826d	0.32534136321377255
26	0xbfd067e11b3261fe	-0.25634029060304886
27	0xbfb40208017cb66b	-0.07815599476153927
28	0xbfd505eaeb427ae9	-0.32848618483141806
29	0x3fb8e18ff1c206fc	0.09719180729191729
30	0xbfc5c24df1c35fcc	-0.16999220185129926
31	0xbfe3547febd9cc82	-0.6040649038753971
32	0x3fc4ad50c4b7ae4f	0.16153916936251497
33	0xbfc9190f798becf5	-0.19607728419200723
34	0xbfe822074c1bb975	-0.7541538702478606
35	0xbfddb4829361db91	-0.46414245980070584
36	0xbfd1a8881ce4d2ad	-0.27591135808624295
37	0xbfce0e9be16a4a0e	-0.23482082850075908
38	0x3fc2e8a54f2aa9d0	0.14772478452262172
39	0xbfcb8c6807f36a5b	-0.21522236240601242
40	0xbfcd340739092c80	-0.22815027508690733
41	0xbfe6363525a2ba02	-0.6941171393462471
42	0x3f9cfbaf77e78f2d	0.02830385369624293
43	0xbfd46cc0ba450cb1	-0.31913774671938727
44	0xbfddd89d8c2692c8	-0.4663461559924085
45	0x3fb3b188586739e0	0.07692768247873216
46	0xbfdbad149755817c	-0.4324389913436091
47	0x3fbda80e71b28d0c	0.11584558749978074
48	0xbfdff4b410439776	-0.49931050861629644
49	0x3f7ebbd186e43134	0.007503336395768213
50	0xbfe0afd5e8ef330d	-0.5214643048762767
51	0xbfdbd0d3eee50945	-0.43462084130819206
52	0xbfe0afed4f9e99e6	-0.5214754633969363
53	0xbfc9755256e95404	-0.19889287227366037
54	0xbfd562ce1dc7ce57	-0.33415558727503963
55	0xbfe09be50b17c581	-0.5190301148087856
56	0x3f8691931ed31ea3	0.011019849184222002
57	0x3fc8a60e610fe8fe	0.19256763209688893
58	0x3fc56aecc979f9b4	0.1673255904933747
59	0x3fd331ddcbd4efba	0.2999186029953723
60	0x3fcbe1006ed3a7de	0.21780400668586614
61	0x3fb34b7ab42fb75e	0.07537047289926366
62	0x3fb0a578e5a5539e	0.06502490622126664
63	0x3fa16bc5a751cd77	0.034025360750912385
64	0xbfbd4e33a97e87f1	-0.11447451484721662
65	0x3fdec2e352f5d35c	0.4806450185927156
66	0x3fc6b94a27f64447	0.1775295920492985
67	0x3fbc04c0d3519d31	0.10944752844954021
68	0x3fd2679d2a458a45	0.28757409217920255
69	0x3fbe63bfc3081abd	0.11870955001368606
70	0x3fc58b5faa1f40bb	0.16831584746114978
71	0xbfa555f4156d51c6	-0.041671397796253326
72	0xbfd4a8baf0d0d912	-0.32279847638291514
73	0x3f60d4f3ee230c70	0.0020546688329843785
74	0xbfc9ce21ab319003	-0.20160313471853905
75	0xbfc53759d56c35e7	-0.16575167580633307
76	0x3fb0694167f50ea7	0.06410607135790745
77	0xbfcfc9dd36365f33	-0.2483479037007271
78	0xbfe27f7d981e09da	-0.5780628176728968
79	0x3fc87ea8dff58464	0.1913653462934547
80	0xbfc25cc3a3626ac8	-0.14345593908077192
81	0xbfb29a7a8b101047	-0.07266965766035681
82	0xbfb6aade500e381c	-0.0885447450111489
83	0xbfaf31e72a7d2be4	-0.06092760461486771
84	0xbfe083c29a66197a	-0.5160840049364162
85	0xbfecc0fc1741964b	-0.8985577062819144
86	0xbfe48c866009e54d	-0.6421539188151343
87	0xbfbe2d1a4c2adbad	-0.1178757129626848
88	0xbfddd6ea03c7829b	-0.4662423169047913
89	0xbfe34c42e4ce4b75	-0.6030592411865273
90	0xbfe0e68c3afe3db0	-0.5281430389604136
91	0x3febab4ae361e2b9	0.8646597329198676
92	0x3fac66e8bc73315b	0.05547263431944557
93	0xbff172a94dba7302	-1.0904934917700193
94	0x3fac0b0cfd36fc35	0.05477181044579319
95	0x3fd119b439fb677a	0.2671938482504782
96	0xbfe0d7e4e9a9d0df	-0.5263542712914634
97	0xbfd4880b1528fa3d	-0.32080342356121944
98	0x3fcc5de609c73d77	0.2216155574555889
99	0xbff0aa79451c41c4	-1.0416195582985077
100	0xbfcfc0aba4774efa	-0.2480673363739852
101	0x3fd89e84f31b0cdc	0.3846752523497352
102	0xbfe31f62e15ed0b1	-0.5975813295140339
103	0xbfd5e69b20a9b8d4	-0.3422000712370281
104	0xbfcbd03d952d4a2f	-0.21729249748257604
105	0xbfdfe6afe3baf3b8	-0.4984550212791947
106	0x3fcc3c1c4fa3ee5b	0.220584429633038
107	0xbfd4828d66dd5661	-0.32046828313227677
108	0xbfd291315746e8cb	-0.29011186144965667
109	0x3fbda95890f3183e	0.11586526430900876
110	0xbfde086b7dc9216e	-0.4692639091849945
111	0xbfb5c488f44d38a6	-0.08503013576884885
112	0xbfb6dd1d3b3d362a	-0.08931143471019057
113	0xbfbe43c45c789796	-0.1182215429076606
114	0xbfc11a35b0908886	-0.1336123573428873
115	0xbfe67e849d5a5091	-0.7029440949722973
116	0xbfd4f69d70662ec5	-0.3275521848342858
117	0xbfcff3de623aa25d	-0.24962978168811648
118	0xbfc2ce336c3e87a1	-0.14691775117267716
119	0xbfe1197d29b7f906	-0.5343614401643044
120	0xbfc87a1d5e1d64ba	-0.19122664542627438
121	0xbfdb3d0eb665705a	-0.4256016522610985
122	0xbfd4e92a010d725a	-0.3267312059668136
123	0x3fc0e33425ab2177	0.13193370665818424
124	0x3f9030b7ec10147a	0.015810846121912615
125	0x3fbb01e89b67466a	0.10549787324932827
126	0x3fa93f8d255241fd	0.049312983327698824
127	0x3fd8158b851126c7	0.37631500239204424
128	0x3fbdd25bc643bd42	0.11649106588787553
129	0x3fd66b7f8d523c9a	0.3503111724939544
130	0x3fd04e53f69d7385	0.2547807606077231
131	0xbfb391358773caf4	-0.07643446499768541
132	0x3fd44d3f34fbf714	0.31721477674715115
133	0x3fbab16d62168c88	0.10426982540825425
134	0x3fb7e56291b8d5af	0.09334388787905
135	0x3fd9349d3c01e3bc	0.3938363157281477
136	0xbfd1750bb167ec8e	-0.2727689011077893
137	0xbfda06ab24ef3286	-0.40665701491233397
138	0xbfdd1defa612115c	-0.45495215623693297
139	0xbfda35a7539ecbf0	-0.40952475706143243
140	0xbfcc38fd7bca20f4	-0.2204892019692647
141	0xbfc3115db8145aec	-0.14896747101075591
142	0x3fdee38e344738a8	0.48263888459485793
143	0xbfc70815c99c93c0	-0.1799342379028115
144	0xbfcd84a06cc4f3f5	-0.2306099444485025
145	0xbfc160159cf5fba0	-0.1357447639856817
146	0x3fd42cf8b1fc92d9	0.3152448404455704
147	0xbfe22a8034ddfa8e	-0.5676880867539056
148	0xbfdda6601d89e9cc	-0.46327975163117396
149	0xbfc215f58dfa9bbf	-0.14129514153066045
150	0xbfbfe58189f73c21	-0.12459573381714552
151	0xbfd80ba6bf022efc	-0.37571114209343626
152	0xbfb618803c7fdba7	-0.08631135441815606

Cum_Area_Features.weight f8 [3, 1, 51]
0	0x3fb833f53f0a6e33	0.09454281605797447
1	0xbfe8a76088f6eaf2	-0.7704317736709909
2	0xbfb50937e085b0d6	-0.08217190963268037
3	0xbfa9a5880f793072	-0.05009103001484129
4	0x3feeb188eadf4d7e	0.9591717326497216
5	0xbfe320b22e4be3a1	-0.5977412132480034
6	0x3fd7d103ba8ebc57	0.37213223665725564
7	0x3fa852a9ae169406	0.0475056672105794
8	0xbfda15d197248c2c	-0.4075817085269502
9	0xbfc977cc5bae0388	-0.19896845318364975
10	0xbfd7a56bfcdca6c0	-0.36947154706522767
11	0xbfdaf5298d47c29c	-0.42121352002053825
12	0x3fc89beea9359188	0.19225867521448614
13	0x3fe41c0b3618f4b2	0.6284233147231559
14	0x3fc6f48d5de50b6f	0.1793381412954562
15	0x3fbab0a253dd5d5c	0.10425772235372704
16	0x3fb03fcf659b5fe1	0.06347366552961332
17	0x3f93325d1e0def3d	0.01874680992067045
18	0x3fd3436d0fb19654	0.30099035770976923
19	0xbfde80e7b90c5533	-0.47661774703131526
20	0xbfe032abcc92d1a2	-0.5061854358269111
21	0xbfe3c3c93233f712	-0.6176496487166523
22	0x3fd52a222184c4f9	0.33069661401084677
23	0xbfe47ddfc4c50822	-0.6403654902608233
24	0x3f9755b5e442993b	0.02278789716424366
25	0xbfd0dd31b0994cbb	-0.26350061651210027
26	0xbfc04b9e5160ff2a	-0.12730769132212433
27	0xbfa2944c50df3c2b	-0.03628767478186775
28	0x3fd760c67547bda1	0.3652816911043946
29	0x3fdc83c6bc55a577	0.44554298774763573
30	0xbfde895c3b5f4a11	-0.4771338062102198
31	0x3fcd60eda619d925	0.22952051744841487
32	0xbf9e0f10ee118cab	-0.029354347734977065
33	0xbfc1020592c2cb59	-0.13287419954357452
34	0x3fd4aae414ea31e8	0.3229303554769829
35	0x3fa3350715e35a59	0.03751394407452286
36	0x3fc188a1ed571dac	0.13698219384080568
37	0x3fd4ff21e19a5e5e	0.3280720427660294
38	0xbf8e7885737112cc	-0.014878313622952354
39	0xbfb77c6a5c38d3cf	-0.0917421794081996
40	0xbfba6a3b1232e0f1	-0.10318345255189222
41	0x3fcd52d48e3e221a	0.2290902800125572
42	0xbfa2f676b93aa2ae	-0.03703661929222811
43	0x3fc176211794ff39	0.13641751910653868
44	0x3fcdd2676e4a0e29	0.23298352132052116
45	0xbfc2ff9479b07ffd	-0.14842468206279583
46	0x3fc73424226fdfde	0.1812787216329061
47	0x3fd20c8948a93055	0.28201515289106754
48	0x3fa109c7d0266d92	0.03327774444479838
49	0xbfaa99c09503057d	-0.05195428675643663
50	0xbfd90f08825ebe2d	-0.3915425561089901
51	0xbfd9c9571bba55a9	-0.4029138346462227
52	0xbfd9d0b045b55b9e	-0.40336233909095565
53	0xbfe404ba313b9245	-0.6255770646644768
54	0xbfd8a7a200224d97	-0.38523149502835835
55	0x3fbd8511c6cbbfc1	0.1153117285100498
56	0xbfeb3a708207c3d9	-0.8508837260870862
57	0xbfd76fafe07fd9b9	-0.3661918346764668
58	0xbfed836e6799472f	-0.9222938559925974
59	0xbfdbedca57c30214	-0.4363885743187279
60	0xbfd6aa50ed8cbcd6	-0.35414527128427886
61	0x3fc097fd6ba1b0a6	0.12963836436700155
62	0xbfc4167c747f6d29	-0.1569362229191509
63	0xbfd0b0a4d3161357	-0.26078148473634627
64	0xbfd8bad5a29f3e14	-0.38640347367342653
65	0xbfe70826e14f600f	-0.7197451019847011
66	0xbfe16b924f1a5e08	-0.5443812890034119
67	0xbfdf7cb76f76c08a	-0.491987093783799
68	0xbfe26109da07c2c3	-0.5743455179600335
69	0xbfcbd0c8f58c1c6d	-0.21730911244978604
70	0xbfc42922cdcdb313	-0.15750536965369885
71	0xbfe682f077e29331	-0.7034838048462914
72	0x3fa75548298fb85a	0.045572524140752704
73	0xbfd6665396423c30	-0.34999551461891354
74	0x3fd90691ee801245	0.3910260037521634
75	0x3fb42e5068e8dd4b	0.07883169709463293
76	0x3fd7c00aa7614478	0.3710962900705179
77	0xbfc0dd76b6f81050	-0.13175853666337156
78	0x3fc201adc603d395	0.14067623299311252
79	0xbfd0107e7340caca	-0.2510067105787753
80	0xbfba3590cf1cbd59	-0.10237984711124194
81	0x3fd0b97e2909ecd2	0.2613215828675496
82	0xbf9c486b48ad7717	-0.027620006857765746
83	0xbf8fb59f5e274bb7	-0.015483136235081447
84	0xbf893f4dfef61cb7	-0.0123277753289258
85	0xbfd19ceebd716bf3	-0.27520340442941843
86	0x3fcdcfd6f68b646c	0.2329052642660686
87	0x3fa884cf090f63af	0.04788825021359543
88	0x3fad8bf5ff37802f	0.057708442119974605
89	0xbf8864b43715a821	-0.01191082757096146
90	0xbfc54876e9e3f8fb	-0.16627394123492664
91	0x3fb67c83ea704184	0.08783745263668236
92	0xbfb8d435906b2913	-0.09698805595249764
93	0x3fd0671ff30e4f16	0.25629423843314336
94	0xbfd223d3e6ebe13f	-0.28343675185125855
95	0xbfb0663a4aa89919	-0.06405987093657863
96	0xbfbcc3b5c7a868ce	-0.11236129879435738
97	0xbfca34142c683fe7	-0.2047143189270166
98	0x3fc7b25259af3d87	0.18512944583060806
99	0xbfac068c8e18d30b	-0.0547374652345863
100	0x3fb0ab5541ee68ec	0.06511433467531774
101	0x3fc83ee9e36f0e8f	0.18941997151533882
102	0xbfdecf1883856746	-0.4813901218782245
103	0xbfdf1b65ab9dff42	-0.4860471893261896
104	0x3fdb25585c51ffaf	0.42415436759619757
105	0x3f69244e2d311102	0.003069069565329597
106	0xbfc4517eb37cdcad	-0.1587370277791015
107	0x3fbd3d61d4f728f5	0.11421786736824287
108	0xbfddcc9a6db1c169	-0.46561299049701305
109	0xbfd860a3b6a6f42f	-0.3808984073364767
110	0x3fd54ca788635d60	0.33280361479906695
111	0xbfc466dd25a3f1e6	-0.15938915574942242
112	0xbfdecba7f0d4f18d	-0.481180176913562
113	0xbfc2afa899e3d5e1	-0.14598567499312678
114	0xbfd2df09923677e3	-0.29486312178221236
115	0x3fc14c706d57b0e3	0.13514523829451894
116	0xbfc9c7f47c76f4ea	-0.20141464307190599
117	0xbfe4d83d986a72dc	-0.6513965584632291
118	0xbfc66c7b03f8c79b	-0.17518556302962626
119	0xbfde45ac29a29e95	-0.4730024725526872
120	0xbfa670ff7aa04757	-0.043830856055264426
121	0x3fd4963ffd27a27b	0.32167052957678494
122	0xbfda3f26986744d3	-0.41010441668647707
123	0xbfdaf26a9d362ee6	-0.4210459265966463
124	0xbfb8d7c5f500b09b	-0.09704243880759338
125	0x3fdb2e76837f4e36	0.424710873046226
126	0xbfe5b1e12a73a571	-0.6779638127456292
127	0xbfca7f09a9a46d52	-0.20700188430132954
128	0x3fa0da86ac9eebf3	0.03291722161471702
129	0x3fe06d3ea571b2fd	0.5133355361300286
130	0x3fb00a49a7d90814	0.06265697810980014
131	0x3fd15ac5cca4e92c	0.2711653231123303
132	0x3f92270ce61c3146	0.017727090401465938
133	0x3fd5dd9a8a2e4cb7	0.34165061468338415
134	0x3fd2965fdcdcc9d3	0.2904281288967045
135	0x3fc4a8b42bb112c5	0.16139843114264898
136	0x3fd14d88cc58639b	0.27035732226937065
137	0x3fd0285f34f67f8c	0.25246410534054387
138	0xbfadfadafb0dcfb8	-0.058554499765619494
139	0xbfb017d1581d29d1	-0.0628634300348161
140	0xbfc1ba953b509665	-0.1385065593359968
141	0xbfcbf3ba4c56f33a	-0.2183754799606506
142	0x3fafe82e96ec4073	0.06231828300781297
143	0xbfb5f26e060cb6ed	-0.08573043487259797
144	0x3fd2e4a78c649bd6	0.29520596227888285
145	0x3fa4407b97aea06e	0.0395544645937783
146	0xbfc0ee2b6cd4a621	-0.13226836027142588
147	0xbfdf6ca1ca06b825	-0.49100537041784015
148	0x3fa8ee0d41bad9f8	0.048691190980594656
149	0xbfc88a804422473f	-0.1917267162976319
150	0x3fde5f99ff1f3d71	0.47458505548725954
151	0xbfeaf8f7bf56d25c	-0.8428915726750108
152	0xbfd444bc07b1bab4	-0.3166952204837046

Div_Features.weight f8 [3, 1, 51]
0	0xbfcc2e7b304d7ffa	-0.22016849382907805
1	0xbfe15497666ecb23	-0.5415760994568227
2	0xbfd76d88564d217a	-0.36606033733234933
3	0x3fcb8f4166b61519	0.21530931010435309
4	0xbfb916a64af61571	-0.09800185518368722
5	0x3f9a8d16300ae0d1	0.025928827936440527
6	0xbfd0561bf85d32f3	-0.2552556920461903
7	0xbfc2c269d21ee830	-0.14655802497674264
8	0x3fe6174996c6a3ea	0.6903427071421195
9	0xbfd043e03cc9541b	-0.2541428178422522
10	0xbfe29266c9ba6278	-0.5803712787629385
11	0xbfd249d6e5aaba8a	-0.2857568018761546
12	0x3fb9cd8c59f0e672	0.10079266734910577
13	0xbfd842748d6a6bf9	-0.37905610857131894
14	0xbfe5680fcdbc2402	-0.6689528482685321
15	0xbfc4a5d4eb2851aa	-0.16131078226375212
16	0xbfded6c04398ef9b	-0.4818573627596778
17	0xbfdcb7abdc3ae81e	-0.44871040827604414
18	0xbfcb9b73a60208e4	-0.21568151098114818
19	0xbfdb5f73f4843b5f	-0.4277009857041118
20	0xbfcc1ed9f682b507	-0.2196915105500141
21	0xbfc01a364ef54d0b	-0.12579993110066598
22	0x3fd3e78d76a0c8cb	0.3110078485943972
23	0xbfd2235d354c00de	-0.2834084530332016
24	0x3fd787aa544b2a04	0.367655355756739
25	0x3fd514509529a87c	0.3293649155299432
26	0xbfdad1c60c798090	-0.4190535661528054
27	0xbfb8d0c96a0cfb26	-0.09693583335045428
28	0x3fa6fd3d9ebf3a0f	0.044900823238652625
29	0xbfccc9998eb1a58e	-0.22490233867146653
30	0xbfd9f70212fc0a0d	-0.40570117811162804
31	0x3fd6bc26f229e02c	0.3552338948134117
32	0xbfc3955b1ecf54ce	-0.15299548153294612
33	0xbfc3274ca70a23da	-0.14963682323676047
34	0xbfcbeac59541a91d	-0.21810216701425925
35	0x3fb4b854d5ad6bf4	0.08093767372831434
36	0x3fd473a12b80de55	0.3195574688756769
37	0x3fe6dd7217607a7c	0.7145319420413467
38	0x3fd6d57ecff0b599	0.3567807226816853
39	0xbfdd7872e6ed4bc9	-0.4604766135354877
40	0xbf8ca18d845a64b4	-0.013980012513729136
41	0xbfd2c29fa4985599	-0.2931288821576686
42	0xbfcddaf60241198a	-0.23324465856621784
43	0xbfe118ee234210ee	-0.5342932404169269
44	0xbfdf3afeab3c1d84	-0.4879757568564502
45	0xbfbbf454d24b6b7d	-0.10919695028444028
46	0x3fd4a6c939aec326	0.3226798117930677
47	0xbfb149ea90dd015d	-0.0675341228170558
48	0x3fcb4b3c3f64faad	0.21323350043708925
49	0x3fe47485b61b077c	0.6392239147901217
50	0x3fc3eb15917518fc	0.1556117019883415
51	0xbfd2cb4e895840da	-0.2936588612801764
52	0x3f9c38dda3710e8c	0.027560675717053715
53	0xbfd7f1010443d6bd	-0.3740847150469156
54	0xbfce05c7fcbfacda	-0.23455142823454517
55	0xbfc48ef1179f1931	-0.16061223653213966
56	0xbfd23ceca23ee8be	-0.2849685272627872
57	0xbfcec5d6f9fa349e	-0.24041259008337063
58	0xbfcd247db624f0df	-0.22767611879124325
59	0xbfb4f6f44c8bed7b	-0.08189322346509258
60	0xbfd55d36ffb46966	-0.333814382278112
61	0xbfd9e994118e233c	-0.4048814937055345
62	0xbfc706cd68e8b051	-0.17989509222514014
63	0xbfe7b9441c0cc26c	-0.7413654849861593
64	0xbfe026b2cfeb1c44	-0.5047239361673594
65	0xbfdf0ef38a136531	-0.4852875564952966
66	0xbfe7c88d3db7dc3a	-0.7432314114984202
67	0xbfe3d998109223e9	-0.6203117679261797
68	0xbfdd1eec6a21edd7	-0.4550124203157941
69	0xbfac568e2df9e497	-0.05534786521179418
70	0xbfe355b185e6084f	-0.6042106261450132
71	0xbfe35f5f9cc249be	-0.6053922712038042
72	0xbfccb76da1d2b8f0	-0.22434778596420513
73	0xbfe3dc7782f5a827	-0.6206624563030844
74	0xbfe07de51dd5b981	-0.5153680403434892
75	0xbfde3458b0926cc3	-0.4719449734054246
76	0xbfe0a6310c0040e1	-0.5202870592493377
77	0xbfd0e1df92fa8d64	-0.2637862143839895
78	0xbfe1dc2808c10f08	-0.5581245585421764
79	0xbfe6c69674d17538	-0.7117416650395745
80	0xbfdf5b897725d44d	-0.4899619735290955
81	0xbfe34bfdef82c7a9	-0.6030263593622652
82	0xbfe9e2ab5f7adbcd	-0.8089196076242559
83	0xbfdfb1ba5757c6e5	-0.4952226498563575
84	0xbfe0599c94b5e6eb	-0.5109389214041732
85	0xbfd6224f90f9caf6	-0.34584416539944074
86	0xbfd8e89718207e90	-0.3891961799254
87	0xbfc3cef843b25043	-0.15475371652121525
88	0xbfd81a97b9244325	-0.37662308769454206
89	0xbfd5770ad603e432	-0.33539076709672877
90	0xbfcd29c4f725cebe	-0.22783720081098652
91	0xbfcbd6bf2d56c87f	-0.21749105180566983
92	0xbfd1759c5ba6c7e6	-0.27280339193668934
93	0xbfe7976720c55166	-0.7372317924551168
94	0xbfcffde42d162ee1	-0.24993564797875137
95	0xbfca35e0d8331880	-0.20476923519726498
96	0xbfdd1be863c395b2	-0.4548283552415696
97	0xbfd04f7633afeb51	-0.25484995887352563
98	0xbfb8602cce346271	-0.09521751436512617
99	0xbfd73f512d7cae58	-0.36323956911176003
100	0xbfc4b12a750f2511	-0.16165667262820496
101	0xbfc65c5bb015de3d	-0.17469354722901356
102	0x3fdde730c0048e6b	0.467235744016057
103	0x3fe57ba13fd7052f	0.6713415381310933
104	0x3fbde0fd3afe4ce8	0.11671431246059039
105	0x3fda7ea3c35ccca3	0.4139794738613977
106	0x3fec53d3e4cf195a	0.8852328747678186
107	0x3fe2d7e4ba47015a	0.5888541830281995
108	0x3fdd665823e0ea16	0.45937160018698486
109	0x3fe944cc8d46dbed	0.7896483191788072
110	0x3fe1f66a7d87b563	0.5613300754318228
111	0x3fddbac86c48d8f0	0.4645253236261757
112	0x3fc2ae15bfb624c9	0.1459376512614539
113	0xbfd76caed9287f2a	-0.3660084839520886
114	0xbfc12ef79dd86da7	-0.134245826790772
115	0x3fe0025cddda7632	0.5002884228776507
116	0x3fe09091dcd42a43	0.5176476777135764
117	0xbfc3d364a9b8dd85	-0.15488870894635567
118	0x3fa2b942e577eca1	0.03656968165520281
119	0xbfa5fa7c66c1039c	-0.04292668108292405
120	0xbfc3a495adff5b4b	-0.15346022602053674
121	0x3fa8e37a8a6d717e	0.048610524557008525
122	0xbfd610b1d1d7a08b	-0.34476895801936597
123	0xbfc4b73e7a25700c	-0.16184216465160295
124	0x3fa124cef9390fae	0.03348395149490045
125	0xbfc76b9171c7ca67	-0.18297021918950238
126	0x3faec179807ffeb9	0.06006984418490675
127	0x3fd224b26c7b7055	0.28348980516398586
128	0x3fe1096c070017c4	0.5324001442647774
129	0x3fc63e91b6b81d24	0.17378446027599026
130	0x3fc35756ef97431f	0.15110289286396836
131	0x3fd404b255741a07	0.31278665871687433
132	0xbfd30bb9d58bfd38	-0.2975906930368697
133	0xbfd55f31d1e4b943	-0.33393521783263597
134	0xbfda0da52b6f2c5c	-0.4070828365481185
135	0xbfd097583605c93a	-0.25923733974117946
136	0xbfc411a2d10056da	-0.1567882080568584
137	0xbfc14bc700421a14	-0.1351250411282342
138	0xbf7ce02fd782a285	-0.007049738771606533
139	0x3fc463d5f99ea668	0.15929674805129257
140	0x3fd5d7683ea3569a	0.3412724124621974
141	0xbfbfebc344e19e9f	-0.12469120437310231
142	0xbfe030842b457e2e	-0.5059223981042515
143	0xbfd3a21fa0bf34f6	-0.30677023599567066
144	0xbfc055ebf3812d35	-0.1276221217143331
145	0xbfd4a0ced7c3fc68	-0.32231494017464124
146	0xbfd2047816517c71	-0.28152277164003353
147	0xbfd0753754cbc2d6	-0.25715430527547534
148	0x3fafd5be69f82976	0.062177610812869696
149	0x3fd4f52cbb5c10b7	0.3274642781909835
150	0xbfcae82899506888	-0.21020991788902088
151	0xbfaa920b93e513fd	-0.05189548664433372
152	0xbfcbded05c3b80da	-0.21773724082505092

Mix.weight f8 [2, 1, 9, 21]
0	0x3f99e22cc35c3c69	0.02527685110458969
1	0x3fcd94a6ad224507	0.23109897092630424
2	0x3fa197936e95ee0e	0.03435955738947537
3	0xbfc91b17a18cb756	-0.19613929165046312
4	0x3fd0adc9ede69ffe	0.26060722572810835
5	0xbfce63a6b0c51cd3	-0.23741611129137272
6	0xbfe576c6085588cc	-0.6707487261558298
7	0xbfd4cf64b534f507	-0.3251582879637031
8	0x3fd4209e0dd58544	0.3144908080194748
9	0x3fd2b94cde7f5db3	0.29255983093522814
10	0xbf91e6d983ec95a7	-0.0174821841020695
11	0xbfe0566ec242849d	-0.5105508607995436
12	0xbfe2554483f54d4a	-0.5729086472805787
13	0xbf95fa37b48b6db6	-0.02146231688935326
14	0x3fdbae39b2a8ae4a	0.4325088734355843
15	0xbfd77bf9bcf292ab	-0.36694186641606547
16	0x3fe1986f8c623c2d	0.5498578779096356
17	0xbfa816c08a3073a4	-0.04704858481293364
18	0x3fd5933676d6f382	0.3371101532500732
19	0xbfbdea2e0230ac79	-0.11685454896421445
20	0x3fe068e8909e44e7	0.5128062080931642
21	0xbfc234e720cf4ffe	-0.1422394666866466
22	0xbfc36ac3e3a31233	-0.1516957150944492
23	0xbfa10d0895ff683e	-0.03330256300951405
24	0xbf96733e3505ffb8	-0.021923992143910914
25	0x3fb7c46e37931b8d	0.0928410421066543
26	0xbf9696c17344e478	-0.0220594622234995
27	0x3fa986551a619a00	0.049853000135772874
28	0xbfb87ea8ccd5b87b	-0.09568266869402635
29	0x3f97577847694e2c	0.022794608458140228
30	0xbf70b079d2f000da	-0.0040745505093584215
31	0x3fa3e280a33773e5	0.03883745186224256
32	0xbfb2ae5d95747ef8	-0.07297310732655748
33	0xbfca33443259555b	-0.20468952616162536
34	0xbfc3138f01b33512	-0.14903438170441824
35	0xbfb6514d0b4d5334	-0.08717805410317397
36	0x3fb2f7d4a363b936	0.07409409512522278
37	0xbfe1a8be0ec1e297	-0.5518484390477906
38	0xbfda25fa1555d136	-0.4085679252960007
39	0xbfab144680a18f67	-0.05288906402782239
40	0xbf9dd0b87e121030	-0.029116518683182047
41	0xbfe091eed7eac841	-0.5178140847331251
42	0xbfbc350e49320e21	-0.11018456732750127
43	0x3fd57dbb61b83f97	0.3357990698141235
44	0xbfe75e3e1bd549ca	-0.7302542251221038
45	0xbfd3eea8bea530c7	-0.3114415990610379
46	0xbfe2d516749b31c3	-0.5885116841760055
47	0xbfddd54d54e6e52b	-0.4661439255829289
48	0x3fc6fca366351493	0.1795849083957007
49	0xbfc431dd10323b3e	-0.15777171412306673
50	0x3fb44f4814f97a01	0.07933474075387183
51	0x3fb7f2aac1cf1e5e	0.09354655486742433
52	0x3fbfbccbeb92ac9e	0.12397455693524015
53	0xbfcf9ce00101400b	-0.2469749455362947
54	0x3fe303af4cb4a205	0.5941998003154941
55	0x3fd3608dae5fafab	0.3027681544178857
56	0x3fb70c5466b56e3e	0.09003188617264699
57	0xbfc959d3dba4f9a0	-0.1980538198931301
58	0x3fccf5270c0520b9	0.22623146140018038
59	0xbfdd59c3dc90d88d	-0.45860382594708754
60	0x3fc1fe96291456ba	0.14058186536629141
61	0xbfd03e78488edddf	-0.25381285749196353
62	0x3fd1b577907c5f2e	0.2767008696550758
63	0x3f8f600773577932	0.015319879729699257
64	0xbfb2851f95a11ced	-0.07234380152759785
65	0xbfd4ff1e4b0af931	-0.32807118729023715
66	0xbfdf5050a2794915	-0.4892770373018192
67	0xbfbc67ba9b13edec	-0.11095777784424116
68	0xbfc297b31dcd67e1	-0.14525450663751285
69	0xbf80836b22b0d6a4	-0.008063160892656747
70	0xbfe5cb78f944337f	-0.6810879581913553
71	0xbfda1a244d150bf1	-0.40784556891975315
72	0xbfb5fee4aaf928a5	-0.08592061208870179
73	0xbfe1331a400f2436	-0.5374881030230714
74	0xbfbb40790f3bdb9b	-0.10645252820891786
75	0xbfd58428019d21f3	-0.33619117887113176
76	0xbfa8b1c297b52257	-0.04823120214365833
77	0xbfd1411191f4c070	-0.2695964742042696
78	0xbfcfa1c6f6442707	-0.24712454819410132
79	0xbfde9e9716ead6fc	-0.47842957723638313
80	0xbfdc8be240457ece	-0.44603782917509427
81	0xbfc759b1b7722f93	-0.1824247499210939
82	0xbfef473c020ec1be	-0.9774456062496524
83	0xbff16925d11181b0	-1.0881708304151338
84	0xbfd434fd60615579	-0.31573423778657844
85	0x3fd2705c1cd87eec	0.2881078988739165
86	0xbf8f6440f1bec056	-0.015327937486148507
87	0x3fbcb76eb356a5c3	0.11217395666485346
88	0x3fc149b319c86174	0.1350616336719771
89	0xbfb95e6b7b0067b7	-0.0990969825074036
90	0x3fd1e2a7989cd382	0.2794589033467717
91	0xbfe38f7fb11fda66	-0.6112669429265452
92	0x3fc5087992a33726	0.16432113323247072
93	0xbf9b6ec116ccd7ac	-0.026789681450473488
94	0x3f7c3e1c0b14c260	0.00689516977699664
95	0x3fda96e8add001bb	0.41546074842338115
96	0x3fb34ec5af2e1a22	0.07542071844918799
97	0xbfac2114a2758091	-0.05493988497869496
98	0x3f8d32c67c3bdc2b	0.01425700251227909
99	0x3fb634a567a08d1c	0.08674081592521471
100	0xbfda5e66a3db5c88	-0.41201177598618033
101	0x3fd0055ee82f1f32	0.2503278033659512
102	0xbfabfc8eef4b0888	-0.054661242209037175
103	0xbfc0a458d21e5f87	-0.13001547107409925
104	0xbfc454e4c084ce1e	-0.1588407459290559
105	0xbfb0744bfbb205d4	-0.06427454848201047
106	0x3fa1620aceba1670	0.03395112775346554
107	0xbf8f408bafd31fa9	-0.015259829810375285
108	0xbfe08d155323ce44	-0.5172220825028906
109	0xbf9ea367fa0b1f29	-0.029920220028343856
110	0x3fd299d59601cbf3	0.2906393017685211
111	0x3fd9bb325ea512ab	0.4020505832925589
112	0xbfebbe2f9d9f9c49	-0.8669660643180431
113	0x3fe07884db8f7a9a	0.514711788968117
114	0x3fb70826c9b9cce3	0.08996813225694526
115	0x3fd154cd0f5b783c	0.27080084323631914
116	0xbfd0efbea9074c2a	-0.2646328592938426
117	0xbfe9f7e8b40e49fb	-0.811512328788296
118	0xbf41fe7c2a145299	-0.0005491358062124806
119	0xbfbdd56289b01d2f	-0.11653724538347342
120	0xbfe079ab1ef0acaa	-0.5148521045970444
121	0x3fa0b113bcb852ce	0.03260099104605772
122	0xbfda5d1769d52d4d	-0.4119318517229729
123	0xbff247a7027aebd5	-1.1424932572251596
124	0xbfd37f8a91c3e0c4	-0.3046595023620393
125	0x3fc5989d1b68f2c3	0.16871990049721405
126	0x3fb85c763b41e6b3	0.09516085573877824
127	0x3fd1ac8a452fcdd3	0.2761560130740836
128	0x3fde78132ccdb8fb	0.4760787904296106
129	0x3fd7fa4c53d98832	0.37465198696566226
130	0x3fd109a281119276	0.26621306042060355
131	0x3fd4021aac8cdc13	0.31262842989548395
132	0x3fe03b52be959f6e	0.5072416040757
133	0x3fda12a61f9454e8	0.4073882397072581
134	0xbfaca625c97f33f7	-0.055955105635440754
135	0xbfb4b3271436456c	-0.08085865252930596
136	0x3fdbc2402ac1c2db	0.4337311189220096
137	0x3fd7c9377b70cd4e	0.37165629439114845
138	0x3fd43f946b554a70	0.31638060075525853
139	0xbfdcded43bf66ec0	-0.4511004052708181
140	0xbf95556e47ee6650	-0.02083370508225918
141	0x3fdcda6c51340aad	0.4508314888954981
142	0x3fdd92f73afc036f	0.46209507713506687
143	0xbfa61b74af223936	-0.04317822110998508
144	0xbfc216b9f7ee64b3	-0.14131855588928985
145	0x3fe20e049bda3350	0.5642111820212481
146	0x3fc6fd3252d66c99	0.17960194630436346
147	0x3fcce77114035eb3	0.22581304051594983
148	0x3fc867f8932436e6	0.19067294296876652
149	0x3fd55c7b9af0bf7b	0.333769704159742
150	0x3fd6286a0a6d442e	0.3462166883301191
151	0x3fb33f4bc7945f97	0.07518457052753856
152	0x3fca5fd19f6c61e8	0.20604915890068232
153	0x3fdb61a5b9ebe7ff	0.42783492237469994
154	0x3fad04f98338665b	0.05667857863245437
155	0x3fc39eae64450b6c	0.153280066451852
156	0x3fd3a1069d47a3bc	0.3067032371459921
157	0xbfbc47e56a1f14a2	-0.11047204819540693
158	0x3fd5eb4e53aa81ff	0.34248693628799737
159	0x3fd2c0f46ddf4b56	0.2930270264598013
160	0x3fcb5f033a575db4	0.2138370547170162
161	0x3fe19035e9b658dd	0.5488538326924545
162	0x3fd317c3e74c671f	0.29832551563014137
163	0x3fd1201f4d457099	0.26758558794041104
164	0x3fcfcef3b29663ca	0.24850317211237744
165	0x3fc2d292e4836b09	0.14705120237234606
166	0x3fae4df3c2ea1947	0.059188478034274676
167	0x3fbbad5768057e05	0.10811373033129008
168	0x3fd12adbbe97bc34	0.26824086773462175
169	0xbfc00fd7e6826ef9	-0.12548350100848163
170	0x3fecdd93d9ed3e45	0.902048040044925
171	0xbfa6cbe577e78332	-0.04452435578037352
172	0x3fe330a5dca689ea	0.5996884641247651
173	0x3ff2e348ec1a23e9	1.1804894659746827
174	0x3feea5bf31db5743	0.957732770325244
175	0xbfc07a85c5d53bde	-0.12873909148990398
176	0x3fa3f1dda5ce8554	0.038954664697721825
177	0x3fdaa2eda03b71f7	0.4161943497436193
178	0x3fe1969c41dbed5d	0.5496350561437954
179	0x3fe32dc7e1054437	0.5993384737904596
180	0x3fe2c54cf4cada28	0.5865845471478837
181	0x3fe17b7607ccaabe	0.5463209297498322
182	0x3fc67da444c87aba	0.17570927961874877
183	0x3fd4f5d88e365d97	0.3275052441399224
184	0x3fa703ef127b3539	0.04495188809014867
185	0x3f9c69038da20a15	0.027744346160497885
186	0xbfbbdf2e4ccd2f78	-0.10887421965634114
187	0xbfd2aa8de4d2e050	-0.29165980669086355
188	0xbfc0be945a867f94	-0.13081602497277045
189	0xbff4acff2df2174f	-1.2922355456116354
190	0xbfe7a4440da95645	-0.7388019816232335
191	0xbfd90a5ed260c80d	-0.3912579588387651
192	0x3fd59bbeb355270e	0.33763091576530335
193	0x3fd0f0f57998ac94	0.2647069632973367
194	0x3faca0e87f1e3121	0.05591513206226951
195	0xbfda7505795bd6ac	-0.4133924183982838
196	0x3fe9ef7f5f90ea32	0.8104855410122751
197	0x3fe536100e70437b	0.6628494531633885
198	0xbfd0530558ca4727	-0.25506719275391493
199	0xbfe26d3fd6b79a8a	-0.5758361047454212
200	0xbff08250f1ab5294	-1.031815475483346
201	0xbfe86ff0aec705df	-0.7636645711538071
202	0xbfef5843e09bed60	-0.9795245539566331
203	0xbffe39b3cfc0ad8e	-1.8890874972665617
204	0xbfec1fab59de107c	-0.8788658862327021
205	0xbff0caf577169977	-1.0495505000959306
206	0xbfdd71af0294ada6	-0.4600636983111265
207	0xbfe4e0f05cbc3237	-0.6524583636506297
208	0xbfcdaa408e0eaaac	-0.2317581838263626
209	0xbfbfc27bc1138305	-0.12406133140349247
210	0xbff87cb0e3388ccb	-1.5304421306434957
211	0xbff2aaf8c043a6e2	-1.1667411337206706
212	0xbfde1cc52ac42257	-0.470505992664163
213	0xbfe336538542c166	-0.6003816225766456
214	0xbf41f1a0964ba0e8	-0.0005476030460984911
215	0xbfe0649ad9ad82fe	-0.5122808696288244
216	0xbfd15ab39c65b19d	-0.2711609866444407
217	0x3f55411ea840e310	0.0012972640406713788
218	0xbfd7b55a0ff73bf4	-0.3704438358226405
219	0xbfe70ec0636e944b	-0.7205507223158149
220	0xbfe1c5f48316ed57	-0.5554144440024328
221	0xbfe01af988cc3a8d	-0.5032928153830923
222	0xbfcebd881722dc9a	-0.24015904550262662
223	0xbfe3aa5760164bbf	-0.6145436169339219
224	0x3fb5d47144ca03a6	0.08527286462232428
225	0x3fd2e889bcb3f6bc	0.29544299533868545
226	0xbfdd43b909569181	-0.4572584716027209
227	0xbfe249053c314805	-0.5714136291155688
228	0x3fed1d9bfd7a773f	0.9098644209623002
229	0xbfd6d661efeaf250	-0.3568348734804987
230	0xbfe4d765b2c20472	-0.6512936107029772
231	0xbfe2e561d4b14330	-0.5905007509373714
232	0xbfe558dd55fe7ccd	-0.6670977286884409
233	0xbf79f3dad3b622a6	-0.006336073677979092
234	0xbff037d4fb3ce289	-1.013630849263935
235	0xbff08159e4f8719a	-1.0315798706206807
236	0xbfd4b9349149cbb1	-0.3238040369826037
237	0x3fc3fa3cb1cf2c64	0.15607412988751712
238	0xbfe1cdf5cee6cf5f	-0.5563916245505246
239	0xbfeef6bfc7f3990b	-0.9676207452110089
240	0xbffc95d88c653801	-1.7865834697909124
241	0xbffbd46c387892d8	-1.7393610196970055
242	0xbffe9eb6da1ba51e	-1.9137485999911585
243	0xbff6a16c5f1c6165	-1.41440999176674
244	0xbfe99afae9966c26	-0.800168472505338
245	0xbfeed23cb34be6e4	-0.963163709820233
246	0xbfba327c2f6d609e	-0.10233284147159558
247	0xbfc1eca8d5ab50e6	-0.14003477509562073
248	0xbfce388820314eaa	-0.23610021182922952
249	0xbfbdf993094b7e10	-0.11708945252348024
250	0x3fbdeaf65b93ef55	0.11686649070537432
251	0x3fac5110d3ed5a10	0.055305982465757464
252	0x3fbb347a53b89d46	0.1062694982907618
253	0x3fd20e80898bd3af	0.282135137865505
254	0x3fc163faeeee5ddc	0.13586365381773546
255	0x3fa8db1b90b0f7c1	0.048546658909330194

Sum20.weight f8 [1, 1, 1, 21]
0	0xc039e1468a1103cc	-25.879982594636928
1	0x40288ecec679404b	12.278921320248761
2	0x40303192854e764d	16.193641978889264
3	0xc03665b07d10f166	-22.397224251400438
4	0xbff1cbf33a5faefe	-1.1122925071931031
5	0xc02e6f722d70cc25	-15.21766798021242
6	0xc025e783b1258e4a	-10.952176605066729
7	0xc02a088685a8cd28	-13.016651322227133
8	0xc020d136ffc38605	-8.40862273465883
9	0xc01b3b6f6c9adc74	-6.808042237235998
10	0xc01fc2628bbd5b10	-7.93982904761539
11	0xc00ccc721d88aae7	-3.5998270327885282
12	0x400df3984e8a12bf	3.743942845905934
13	0x400681ad69f2108d	2.813319041919448
14	0x401b2a90cc5dbcbe	6.791567986699361
15	0xbffc3bddc345ed16	-1.764615786348093
16	0xc01ceb61b8460df6	-7.229864959026136
17	0xc02707702b2f1ce4	-11.51452765417202
18	0xc02bf39122ec16a6	-13.975716677970308
19	0xc02f39c2cb2e4b2a	-15.612814282799793
20	0xc02f9353fa5c2593	-15.787750076053987
