ML1/Recon.pt (torch, 26843 bytes, 5 tensors)

Classify.0.weight f8 [5, 1, 21]
0	0xbfb7593e581b9577	-0.09120549822872258
1	0xbfb6807092670c04	-0.08789733480720946
2	0x3fc41acdc7f3ad87	0.1570679880454515
3	0x3fa139fbd91eab98	0.03364550614727263
4	0xbfca5549346a051c	-0.20572772082599833
5	0xbfce62859db80275	-0.23738165093529387
6	0xbfc1011afb78e7a9	-0.1328462341205612
7	0x3fbeb17bc073828c	0.11989568184390914
8	0xbfb8f15f85cdc2c5	-0.09743306175893014
9	0x3fc5c261331fea8e	0.16999449726411736
10	0x3f9514f324fa3f56	0.02058772957985807
11	0xbfb56fc5ddf5ad88	-0.08373676937997321
12	0x3facd8fb81ffbcfd	0.05634294473554211
13	0x3fa25160a5ef6691	0.03577711129737538
14	0xbf81f3f0629b75d3	-0.008766057976965868
15	0x3fb998836c392f14	0.09998341934368354
16	0x3fc2a609eec7b1de	0.14569210204298505
17	0xbfa58d4b886c6ec4	-0.04209362068487857
18	0x3fb96e69a4c0f4c1	0.0993410136442945
19	0xbfbb7e95ed82f4fe	-0.10740029381391378
20	0xbfbe0bb000e7fee1	-0.11736583730816676
21	0xbfc6675c5d6a6c88	-0.17502932130159743
22	0xbfc7650a6fea891c	-0.18277101959854114
23	0x3fba0e7b6eec4a9e	0.10178348024445902
24	0x3fa1fe7f1b119c25	0.0351447792571025
25	0x3fca3db83ab7ab09	0.20500853411734735
26	0xbfc000c1ca67c120	-0.12502310164519148
27	0xbf8c328a98657def	-0.013768275047083526
28	0x3fb0ab14929d2a6d	0.06511047915879838
29	0xbfb675f3626de92a	-0.08773728516635929
30	0xbf9fbc325bbb8c64	-0.030991350983537905
31	0x3f975d4cc35b4ab9	0.022816848205205107
32	0x3fc6aa07921841e0	0.17706389077694862
33	0x3f767a0f2db8d8fc	0.005487498561299594
34	0x3fca52c4e6a04b47	0.20565091382067122
35	0xbfce1bbb7bc60486	-0.23522132438305138
36	0x3fa60e8e35bda971	0.04307979970947685
37	0xbfdb8d96131955a9	-0.4305167376054109
38	0xbfce072f3afd317c	-0.23459425335239448
39	0xbf8f036152e0353d	-0.01514316591421993
40	0x3fbbb7f43e1d09ba	0.1082756663936725
41	0x3fb4f4bebe1f10d6	0.08185951367983377
42	0x3f9582b6fbbf33a4	0.021006449809465658
43	0xbfbd21e62ee38054	-0.11379851002448166
44	0x3fc91d95f861d9c8	0.19621538761175672
45	0xbfc5f5d5fec5cbff	-0.17156481685705668
46	0x3fc07cdd8624b3f0	0.12881058740586537
47	0xbfc128e043a76806	-0.13405993750967599
48	0x3fcbe2ba50685925	0.21785668302681774
49	0x3fbb5664eaa4fd34	0.10678702095627984
50	0xbfc914de3056c5fd	-0.19594933853436194
51	0xbfc78fd118f056e4	-0.18407644002643686
52	0x3fc30aa9f9a0d2e7	0.14876293839338148
53	0xbfb4d7bfbe01b4eb	-0.08141706837496414
54	0x3fcd9ed6c4a1d183	0.23140987969567214
55	0xbfbc22eecf371f28	-0.10990803297965768
56	0x3f8af6270cc7ef57	0.01316481120829109
57	0x3faf55ea91881d9f	0.06120236422071489
58	0x3fb53ee002b592aa	0.08299064699310557
59	0x3f9113ca5ef00a79	0.016677057308707142
60	0xbfd18e4db354d5e2	-0.27431051743346135
61	0xbfc60a15f2fb278c	-0.17218279232320943
62	0xbfcebc372a124a94	-0.24011888078947108
63	0xbfbc1485d8a04a61	-0.10968815363620756
64	0xbfd15e79935721e1	-0.27139129055697536
65	0x3faa2ce666ec7249	0.05112380987541038
66	0xbfc1fcca94871b63	-0.14052707912761794
67	0x3fb2f1028073baaa	0.0739900172809295
68	0x3fa5b17725647ba8	0.042369578661456686
69	0xbf727a38bb7a3511	-0.004511090861013104
70	0x3fcb299f34394f06	0.2122076992987944
71	0xbfc08a81b34621fc	-0.1292268872605432
72	0x3fc1813d125f9346	0.1367565479005412
73	0xbfb0aef4a671195f	-0.06516961158295008
74	0xbfb20b7a453b0523	-0.07048763456534295
75	0x3fc102730640475c	0.13288724713543842
76	0xbfb8c0bafc3f0a8d	-0.09669083269458607
77	0xbfc36333d705f17c	-0.15146492003612966
78	0x3fbc46d48f44f38e	0.11045578477656035
79	0x3fb57289065047f2	0.08377891925945827
80	0x3fbd51f942f32a59	0.11453206905859172
81	0xbfc0132798052bf7	-0.1255845539365905
82	0x3fa1e7a809e3c717	0.03497052307819908
83	0xbf7e093402374557	-0.007332995566188791
84	0x3fbbcfa8fac6aa0a	0.10863739130460473
85	0xbf614ec35e2ca9a5	-0.002112752511853349
86	0xbfb2dffda5b4c469	-0.07373032851752871
87	0x3f98a049603089af	0.024048944946238823
88	0xbfbc90db60ebd79c	-0.11158534160844485
89	0xbfb1b826db693e57	-0.06921618324963084
90	0xbfbd01ac61365c7b	-0.11330678342197757
91	0x3fa62d3478d5c879	0.043313636541726326
92	0x3fc8af508f1b809c	0.19285017955462969
93	0x3f8b3322b1f966da	0.013281127029745422
94	0x3fca1148edd448ff	0.20365249264484217
95	0x3f99329800fa39c0	0.024607062396677426
96	0xbfd22cc75eae631e	-0.2839830803509801
97	0xbfd0b93443f1a6ba	-0.261303964950098
98	0x3fbec938556c45ff	0.12025787435074874
99	0xbfbec5539ff2e59c	-0.12019846587181465
100	0xbfa6dad86cadbf22	-0.04463840796131381
101	0x3fcbc85f996236f8	0.21705241193233582
102	0xbfd26b8fec562739	-0.2878150756811127
103	0xbfc570d2e9cb6106	-0.16750561156982985
104	0xbfa09078a42c18da	-0.03235222820335233

Classify.2.weight f8 [10, 5, 11]
0	0xbf81e5959a60168d	-0.008738678716336845
1	0x3fba14e579f2ef82	0.10188135363836007
2	0xbfae829549862e06	-0.05959002039443466
3	0xbfad5ef25bbe3ef5	-0.05736501092826344
4	0xbf90d5ab2c7edd22	-0.01644008120612484
5	0x3fc0cc6bc01ab7f4	0.1312384307870499
6	0x3fa9ced5320516d8	0.050406133991186486
7	0x3f97862ee288ae91	0.0229728055730179
8	0xbfb3e2c462a0892a	-0.07767894180191051
9	0xbfc0cb7d571f343c	-0.13121001008986066
10	0x3fb65afb15d184a2	0.08732575686146274
11	0xbfb883fa26797f16	-0.09576381148644617
12	0x3fc3815fbed58416	0.15238568132466018
13	0x3fb8ffbf8d95d4e3	0.09765240866348139
14	0x3fb70ae29c3ac0a0	0.09000984491535968
15	0xbfc2c1c774749400	-0.1465386694555093
16	0xbfcfb5e625fca64c	-0.24773861746625625
17	0x3fc5ef9fac179038	0.17137523558551648
18	0x3fb33d675a2fc9cd	0.07515569640944549
19	0xbfb6499c96f91964	-0.0870607250772984
20	0xbfcbb69c77351065	-0.21651035137813604
21	0x3fb30399478c63b6	0.07427366253649734
22	0x3fa6aeae95ad75fd	0.04430146767729679
23	0xbfc7560f9b56de5d	-0.18231387219360587
24	0x3faa48721d255ebb	0.05133396726404046
25	0xbfc1d0d1523f5acb	-0.13918510929098313
26	0x3fb9b56af43bd455	0.10042446577775029
27	0xbf98ece20a4eb33c	-0.024341136817088257
28	0xbfb2b89fc6ccc72a	-0.07312964061273122
29	0xbf9a3ea52dc9a98b	-0.02562959758726317
30	0xbfb5213e1faec71a	-0.08253849290374796
31	0xbfb7a3e5d45b0855	-0.09234463152373114
32	0x3fa65a3a7b418894	0.04365713839139676
33	0x3fa2bfb3101e22dc	0.03661880084752564
34	0xbfc13211543db9fa	-0.1343404446920003
35	0xbfc0be3a3ae16a15	-0.13080528140092498
36	0xbfb7e393e9d203dc	-0.09331631144051705
37	0xbfa5ed7c9f534045	-0.04282750553977669
38	0xbfa0f4698570680b	-0.03311471704383003
39	0x3fc7964a0d82151f	0.1842739644963922
40	0x3f6c7242a0833ab9	0.0034724522884979872
41	0x3fb8f7c50aea4dbb	0.0975306655548626
42	0xbfa54c03ee99246d	-0.04159557616782981
43	0x3fbee4f022720f6f	0.1206808170409752
44	0x3fb73fe5c459ebeb	0.0908187488911804
45	0x3fa6592d5fba5696	0.043649118361981085
46	0xbfbeb5f1f60e1eb7	-0.11996376282888375
47	0x3fc253c8b285e53e	0.14318188397354875
48	0x3fa54fe7e452f16e	0.04162525808485183
49	0xbfbb7f4f294f9180	-0.10741133459629815
50	0xbfcb704e4b0dcc8d	-0.2143648020242818
51	0xbf941c2a60473b88	-0.019638692976339495
52	0x3fb389ba0fbf3006	0.07632029423183448
53	0x3f7153920fb3a55a	0.00423008971413571
54	0x3fb496d6a8eab911	0.08042661308238432
55	0xbfc4d623ba2b15a9	-0.16278502073525417
56	0x3fb6bec64c76ae45	0.08884848944460895
57	0xbf92d69369bdaec9	-0.018396666840472507
58	0x3fa683b749b18d4e	0.04397366308765048
59	0xbf6018d4ee41432e	-0.0019649657061012937
60	0xbfa869f8e7f9b88f	-0.04768350440723267
61	0x3fba4c5573c83d11	0.10272726132119582
62	0x3fad75948a80ae39	0.057537691027701184
63	0xbfa600bcbf045fd8	-0.0429743750739246
64	0x3fa25203b3c0140d	0.03578197068421938
65	0x3fb2379a964e074a	0.07116094750929594
66	0x3f7deb63fa3fd925	0.007304564034703175
67	0xbfb98d0127a7b986	-0.0998078080953971
68	0xbfaffc1f6d510096	-0.062470419019974674
69	0x3fb593e7ebd4db00	0.0842881155739228
70	0xbfc0414507decd97	-0.12699187168400947
71	0xbfc4640f3c818961	-0.15930357412714627
72	0x3fb20c659a29334c	0.07050166143126296
73	0xbfb983a74f3aaf7a	-0.09966512378985995
74	0x3fc40368499e3ecf	0.15635398478160886
75	0x3fb362fdadbefe4c	0.07572923175666196
76	0xbf45f6c41dc0aab2	-0.000670285949586477
77	0xbfbc86e40457920b	-0.11143326860435125
78	0xbf7e395fbcfd4617	-0.007378934838770521
79	0xbf9fce4edf266005	-0.031060440416325736
80	0x3f9e543d64ea723b	0.029618224415218313
81	0x3f8b7a3e5c70c1f1	0.01341675490957159
82	0xbfbcab20cf29798f	-0.1119862085119847
83	0x3fc2174d68a47c38	0.14133613214014118
84	0x3f8145d43d9a2d71	0.008433969621612221
85	0x3f90d4ec7f601ccb	0.01643723990858063
86	0xbfc8756debb03a43	-0.19108366020414466
87	0x3fb9456d1fdaabd1	0.09871561076822323
88	0xbfc7c9353a83e78e	-0.18582787854375876
89	0x3fb0d07686013e3a	0.06568089267352031
90	0xbfb17ee97ef651ba	-0.06834277486479481
91	0xbfc043cf80278886	-0.12706941373386743
92	0x3fb98e3abfd6560d	0.09982649978186249
93	0xbf84962021dd8bbe	-0.01005196669911423
94	0x3fc25f85c05510a9	0.1435401143190849
95	0x3fa2ea38ee900634	0.03694322502270744
96	0xbfb58b19f0515fde	-0.08415376774917102
97	0x3fabae7c05fbd459	0.054065585833008974
98	0x3fbc2ec40834310e	0.11008858871736413
99	0xbfb78a8dcbf60821	-0.09195791463392357
100	0xbfb36bd7e65eed31	-0.07586430906569742
101	0x3fce629759611f9a	0.23738376487949325
102	0xbf3f9c8285218251	-0.00048235117458797933
103	0x3f90c01effd1c765	0.016357883800487544
104	0x3fb688e617a15b81	0.08802640988265688
105	0x3f8de867bc794cae	0.014603434027924269
106	0xbfaa8704e0855135	-0.05181136360866604
107	0x3f9d3bb95ca03329	0.02854814174502277
108	0xbfd0493a07063efa	-0.25446940122581874
109	0x3fb33d05487dc3e0	0.07514985103422545
110	0x3fb97badf7d0ecaa	0.09954345035741832
111	0x3fa9771b3d8830e3	0.04973683477519033
112	0x3fab844def208dd6	0.053743777695014636
113	0x3fc74bfc67498dc5	0.18200640719724795
114	0xbfa8739585d34171	-0.04775683649643526
115	0xbfc00dc6fb837297	-0.125420449075041
116	0xbfc08067d95da3fb	-0.12891862977565424
117	0x3fc00696f679a658	0.12520110163613896
118	0xbfb3ef083f28b311	-0.07786609212844221
119	0x3fbf0f2a5cbf8e64	0.12132515682565664
120	0x3fc3bb2b85ae17de	0.15414947535845064
121	0x3fb56704c91f14fb	0.08360319051924485
122	0xbf89351b64815503	-0.01230832481830158
123	0xbfc3c255e3ca6a92	-0.15436814901916712
124	0xbfc0a3202921b4bc	-0.12997819908506425
125	0x3fac8217b83f3a92	0.05568002819164976
126	0xbfb58993cf67731e	-0.08413051427437465
127	0xbfb91dfae126c93f	-0.09811370846617694
128	0xbfadd6cce13ce0c9	-0.05827942132458614
129	0x3fc97c51f971b740	0.19910645179646203
130	0x3fae6e0c2712878b	0.05943334557492993
131	0x3fa3c3330cdb4b44	0.03859862834874275
132	0xbfcce29e432fa731	-0.22566583900998574
133	0xbfc94e3c2d43c61b	-0.1977000447291609
134	0x3fad5e66c036812d	0.057360850299348655
135	0x3f9b92109ed4c016	0.0269243809645446
136	0x3fadc79a0bc22295	0.05816346543821741
137	0x3fb272ec1352afda	0.07206607314827754
138	0x3f5737e237904a6a	0.0014171322966417773
139	0x3fbbc53ffbfebe88	0.10847854521011346
140	0x3fbc568a8d9a9f06	0.11069551427010191
141	0xbfc2c24ae98785bc	-0.1465543403892705
142	0xbfbff3edaa2fbae7	-0.12481580166761895
143	0xbfbaac946f86e037	-0.10419585917304706
144	0x3fb8acfc847899e5	0.09638956293256447
145	0xbfc1c04ae0fae72f	-0.13868080125194512
146	0xbf935d264a63da17	-0.018910024919899095
147	0x3fba3137c8de2f29	0.10231350568772925
148	0xbfb67dffc9bbec7c	-0.08786009478710527
149	0xbfc44c8543a1dbf5	-0.1585852222667367
150	0xbfa9b3d15f3214f5	-0.05020002638870295
151	0xbfb3bd5ce027234c	-0.07710819694979171
152	0xbfb430771d539925	-0.07886452165584908
153	0x3fc13117ebe6ea50	0.13431071299221964
154	0xbf80ca9bc977be4d	-0.008198945127303814
155	0x3f6cf4bc8000077e	0.0035346681252130243
156	0xbfa8c4d21d8b2b38	-0.0483766232551574
157	0x3f948217c0ac9ae5	0.02002751458635545
158	0xbfbd11481db19247	-0.11354494786207524
159	0x3f9f766fa1e7a92c	0.030725235230343248
160	0xbfb1948f9aac5684	-0.06867311025811246
161	0x3f8f0840e27029ab	0.015152460966437816
162	0x3f977290aacf6f3d	0.02289796869796067
163	0xbf96f114b23a1726	-0.022404025438411378
164	0x3fa3dc44d1cbf0ee	0.038789892778341314
165	0xbfbd66fdff5a6dbd	-0.1148527859135617
166	0x3fa4732b6aca077d	0.0399411743028528
167	0xbfc05dd9890fe0ed	-0.12786406700593692
168	0xbfb0f2ef95cbd1ea	-0.06620690734036541
169	0x3fafb229c612b51f	0.061906152180521305
170	0x3fc31c3ea2d34cd1	0.14929945898493327
171	0x3fb3b5d56704d555	0.07699331059560184
172	0x3fc18440e9a86641	0.13684855851242797
173	0xbf6d7523f9e525a5	-0.0035958960208161855
174	0xbfa427136b0f6b80	-0.03936062509429572
175	0x3fb78bf8071ade29	0.09197950528584244
176	0x3fb8a2043fe8c52a	0.09622217712673789
177	0xbfb23efce7383f15	-0.0712736191273929
178	0x3fab5d280a6cbc82	0.05344510199790255
179	0x3fc53652c203bab0	0.16572031472556636
180	0xbf8d4957ec983818	-0.014300047786516543
181	0x3fa4bf15524f09ae	0.04052034978623752
182	0x3fc8261090cf16ea	0.1886616427493018
183	0xbfac58d6fef10134	-0.05536529409482896
184	0x3fc363129fc2a49c	0.15146096039578516
185	0x3fc3b83e6473cda1	0.15406017212772574
186	0x3fa7c215b4dcf72a	0.04640262444307404
187	0x3fc5174965a8b948	0.16477315391370895
188	0xbf2df58ee7f40daa	-0.0002285706468470987
189	0xbfb0694059c6db93	-0.06410600845161545
190	0xbfb8cd36a45a27ba	-0.09688130867485159
191	0xbfbabd5e62c29a13	-0.10445203696381382
192	0x3fb2b1870863983f	0.07302135424433319
193	0x3fbe1f038913077a	0.11766073318997697
194	0xbfb7ae116bd4187a	-0.09249981768161489
195	0x3fb5e40c1583e7ec	0.08551097417139858
196	0x3fb4de336b3540d0	0.0815155159700709
197	0x3faa1d5304e9e251	0.05100497660618387
198	0xbfb10bb14905b66e	-0.06658466370364532
199	0x3fbe06c732507c43	0.11729092577341853
200	0xbf979a698b8a1378	-0.02304997362309133
201	0xbfa9e346601b1bed	-0.05056209490935957
202	0xbfb9f791583478b9	-0.10143383410874919
203	0xbfb1131beefd3dc9	-0.06669783196161129
204	0x3fa0cb52a6187c05	0.032801230216357204
205	0x3f698a5b27854aea	0.0031177311285913627
206	0x3fc2bc73d9d535c6	0.1463761151921245
207	0xbf68df343c7c68c1	-0.0030361194839204357
208	0xbfb21bb2f77f2a34	-0.07073515455628226
209	0xbf940501de2a8b6a	-0.01955035131926356
210	0x3fc1e36c5f56616f	0.13975290923259417
211	0xbf75e5b19ad787d1	-0.0053460061730862965
212	0x3fb9bf0f93733854	0.10057160711150576
213	0x3fa72f00d80a66eb	0.04528048169340856
214	0xbf90732619ee1fa4	-0.0160642579390068
215	0xbfb2a0f9d39d9ff4	-0.07276879707717382
216	0x3fa7e3a632ec9f19	0.04665870067247919
217	0x3fbab38a705dae0a	0.10430207484539991
218	0xbf9fe8ddee176484	-0.031161754280991008
219	0x3fb7cd2207e66ecd	0.0929738301551268
220	0x3fc7c71906b159dd	0.18576348139568113
221	0x3faa409f669258cc	0.05127428176017332
222	0x3f9f7709b480f983	0.030727531091764525
223	0x3fc03a48b744c9d4	0.1267786879412386
224	0xbf71ab08e457089d	-0.0043135020582118185
225	0x3facb163297dcc92	0.056040858092182635
226	0xbf7511d54b80a747	-0.005143960173919221
227	0xbfbf00c930e3f1c7	-0.12110574191678501
228	0x3f896361f4cc5e42	0.012396588595534944
229	0x3f994b1173859084	0.02470042483891223
230	0xbf7f11abbd1e1479	-0.00758521161504177
231	0x3fb5adf488b55136	0.08468559587101229
232	0x3fc2f5fe28aa8217	0.14813210473677493
233	0x3f62ddd9bfd6a0c0	0.0023030522267682707
234	0xbf87be86626fc914	-0.011593866232918283
235	0x3f8cda05c3e33ee5	0.014087719955937892
236	0xbfa6c5992d07d615	-0.04447630572023457
237	0xbf9c004035f4b615	-0.027344706814963333
238	0x3fb000039606b7e3	0.06250021374464114
239	0x3faf891d8d8200c6	0.0615929827918094
240	0xbfc2b59133060a20	-0.1461659907473214
241	0xbf82265b87ae79e2	-0.008862223699733943
242	0x3fbf7644a70f8119	0.12289837912203828
243	0x3fc7ba595b5380c5	0.18537442168508825
244	0xbf550aa137ca7548	-0.0012842726129414662
245	0xbfb2cd4af441f4f0	-0.07344501937219028
246	0xbfb5d28ed8575119	-0.08524410993351629
247	0x3fb7126785cad44a	0.0901245786324846
248	0x3fb9b3ca498d9285	0.10039963050582841
249	0x3fafe248ac71362e	0.06227328400619246
250	0xbfbdd05fd629d98e	-0.1164607904300736
251	0xbf7b6d861d55ce96	-0.006696246991271379
252	0xbfc74cc3b919e897	-0.18203016794342794
253	0xbfac8c64937dd59b	-0.055758612636888936
254	0x3f6fdad88b7d0288	0.003888533534251618
255	0x3fad519befb7efd4	0.057263253223908045

Classify.4.weight f8 [15, 10, 5]
0	0x3fa41ce4623427f4	0.03928292940879877
1	0xbfc2bc22ca8a9ea5	-0.14636645211907254
2	0xbfadd0beccd8fab2	-0.05823322535115007
3	0xbfbcd2cca7854384	-0.11259154405457933
4	0xbfc4edd5ae50ef88	-0.16350813876658443
5	0xbfc4484c9723cd77	-0.1584563959109848
6	0xbfba02f2fc1c7904	-0.10160750060137863
7	0xbfb0317eaffe0b70	-0.06325523182571913
8	0xbfb95869427c2ddd	-0.09900529740496418
9	0xbfb47962e664cfc5	-0.07997720837448614
10	0xbfb2128313399df3	-0.07059497088777515
11	0xbfb5a6829d175273	-0.08457199416381815
12	0xbfc60ca47dab23ea	-0.17226081977994961
13	0x3fc2791a53747c9a	0.14432076525642829
14	0xbfc609adac9e5f45	-0.17217036179203596
15	0x3fb4ea7527dde4cf	0.08170253966627004
16	0xbfb520d3704628b2	-0.0825321339708889
17	0x3fab3a69fe061d43	0.053180038698935415
18	0xbfa9109becf467a1	-0.04895484225762848
19	0xbfb95b82c50631b1	-0.09905259428177861
20	0xbf7afb7535737a11	-0.006587465140198493
21	0x3fc7d963495e6efc	0.1863216503378381
22	0x3fb0a62eb5b5af6f	0.06503574310562298
23	0x3f90197386a5ab6a	0.015722088902673383
24	0x3fbc1f7bbf2af021	0.1098553983419497
25	0x3fb04c4fd7a3fbb9	0.06366442694341758
26	0xbfb58096af234090	-0.08399335647414063
27	0xbfb30a0034b727c7	-0.07437135016439732
28	0x3fb789442c99cf6d	0.09193826760184516
29	0xbfba4a975a586c78	-0.1027006717271649
30	0x3f9f7f805218924f	0.0307598161799823
31	0xbfc1215cf86d0f8c	-0.13383066301514324
32	0x3fb6fc306a3f413e	0.0897856006042774
33	0xbfad736bc3975870	-0.057521216989400936
34	0x3fbc719588984aae	0.11110815605961008
35	0x3fa0914de1837a11	0.03235858323909125
36	0x3fbd9496f9066d82	0.1155485494586426
37	0x3fafd332a52faccb	0.062158186592421304
38	0xbfb0c668ddcd5b8f	-0.06552749075977558
39	0xbf8010ce24088e44	-0.007844553446438536
40	0x3fb40906033d95d3	0.07826268748393454
41	0x3fa2812fe243e729	0.0361418689444249
42	0x3fb5f8cd279bcbe4	0.0858276578617701
43	0x3fc220073d46d8c6	0.1416024254992349
44	0xbf9381ce27f62a1c	-0.019049855412541658
45	0xbf9caa306f2b4776	-0.027992970261784454
46	0xbfb7454345eb6dab	-0.09090061623594774
47	0xbfa2d12a91195f22	-0.03675206204633087
48	0x3fc6ba742f3ccb41	0.17756511980550196
49	0x3fb8a48ff49256c3	0.0962610218142244
50	0xbfba5399868b022a	-0.10283813032857184
51	0x3fc0208c6a181fd2	0.1259933012045154
52	0x3fb6b330fb9eded3	0.08867174285012007
53	0xbfb2251e041d75e5	-0.07087886429277253
54	0x3ee0062929f60190	7.640869909009818e-06
55	0x3fbb76a10cb5aa22	0.10727888641637454
56	0xbfb1d01719f52d1e	-0.06958145507558242
57	0x3f84ecf9ed2f9d67	0.010217621374933384
58	0x3fbc61f396795db3	0.11086962150272121
59	0x3fba36a8386e8125	0.10239650132871654
60	0x3fa1e665f813abc4	0.03496092465669379
61	0xbf8157c33e81e94d	-0.008468175263477784
62	0x3fc406dc17479608	0.15645934235287506
63	0x3fcf5be6043579bf	0.24499201970588833
64	0x3f909eec8c12d173	0.01623124699536178
65	0x3fb8b450ad679699	0.09650139077674637
66	0xbfc01e2ac90f6ad8	-0.1259206277598739
67	0x3f8ca47b868fe179	0.0139856005134653
68	0x3fbd5f9d6f1ec592	0.11474021876235543
69	0x3f7d71e1fccf9b8f	0.007188685191954826
70	0xbfb7238eb8ebfd7a	-0.09038631453221582
71	0x3fb12075fe2069eb	0.06690156416190234
72	0x3fa485d3a0770b9d	0.04008351644326711
73	0x3fc0335000b54484	0.12656593355726298
74	0xbfb162ce01400932	-0.0679138901760197
75	0xbfbd3857ea18361d	-0.1141409822959862
76	0xbfb2f2169b441df1	-0.07400647440601184
77	0x3f9e92f240fbae82	0.029857430664306246
78	0x3fc8c360a4642694	0.19346244837679605
79	0xbfb0dbc76efbefd2	-0.06585356196950379
80	0xbf7fc4a57f7e3110	-0.00775589606918127
81	0xbfa485044642c813	-0.04007733686138706
82	0xbfd21bfeb90eec2f	-0.2829586798868062
83	0xbfc5e9d7a8ff3ccc	-0.17119880439574897
84	0xbfc20094b775e55c	-0.14064272840532055
85	0xbfc60996e7545123	-0.1721676473176866
86	0x3fb83a8c8776e1bd	0.0946433859561528
87	0x3f84e8828d464276	0.010209102569917788
88	0x3fc4aca493d57028	0.16151864260143722
89	0x3fbcaa30b5e06bb4	0.11197189751003017
90	0x3fa31297c13480a8	0.037251226744275556
91	0xbfa8c6a14e6c59b8	-0.04839042742075911
92	0xbfbfd37177610b3f	-0.12432011761215465
93	0xbfb7534a82e24fa8	-0.09111467070971335
94	0xbfb07bf5423d88fe	-0.06439144961544582
95	0xbfb83f935ba7890a	-0.09472008693368053
96	0x3fb47ba51ab81448	0.08001167204209125
97	0xbfb9ae58b25f45ba	-0.10031656603611952
98	0xbfb0a1373a24f0c6	-0.06495995683229969
99	0xbf7c5b2895ace87a	-0.0069228730524689645
100	0xbfc3091b31fa5030	-0.14871540012666307
101	0xbfb4ca4a8d259653	-0.0812117189976445
102	0xbfcd04e77ee5d618	-0.22671216674977823
103	0xbfbe6f5b6ca64a3d	-0.11888667490556144
104	0x3fb5f3a3d84aa9fd	0.08574890165861145
105	0x3fad86cbea74956f	0.05766904103283365
106	0x3f8e9e40d632501e	0.014950281655082217
107	0xbfc30586da9cc90a	-0.14860616373477625
108	0x3fadcecbe54c1af2	0.058218356838599564
109	0xbfcc928f3742c072	-0.22322263906744727
110	0x3fb50761baca94d4	0.0821438866647271
111	0xbfae5352650bb7af	-0.059229445299805554
112	0x3f762a9e67a0b9dc	0.005411738175139704
113	0xbfa87dfcd20dbdaa	-0.04783620895511416
114	0x3fc34d518b25eefc	0.15079707426399824
115	0x3f9c77c4b49f3bea	0.027800630115787962
116	0x3fb9aaf9fb633f74	0.10026514422793104
117	0xbfbbd19a9e68d6ba	-0.10866705291194992
118	0x3f9e9a68576ad1d6	0.02988589318802489
119	0xbfc1b56622c0e0e0	-0.13834835717148675
120	0x3fb412cd1bbd8b5a	0.07841188361412091
121	0xbf990a63344b17de	-0.024453687731487032
122	0x3fa3897b3c7d7116	0.038158274778398546
123	0x3f8a075470af11bc	0.012709293068731913
124	0x3f7235d8c4ec3d1e	0.004445883517078001
125	0xbfa6ccdba9a829e4	-0.04453169294363926
126	0x3fb8c49492a33961	0.09674957828540222
127	0x3fa757a674254779	0.04559059303086505
128	0x3fad5bad7252cfd7	0.05734006901312199
129	0x3fbcd5a0e712d3eb	0.11263471261447904
130	0xbf7213c48d3bd873	-0.004413383274132088
131	0xbfba11e79fb1693d	-0.1018357052684324
132	0xbfc35e2a09b949b8	-0.15131116366189956
133	0xbf55de00e97f8985	-0.0013346680552720213
134	0x3fc01d57e0aabb22	0.12589548559250213
135	0x3fb6e1a3c451260d	0.0893804888047713
136	0xbfb8fdc2b4f8b8a0	-0.09762207906962539
137	0xbfb5ac163d5cfcef	-0.08465708730817643
138	0xbfb9aa0a7bb0112e	-0.10025086898537403
139	0xbfb853a950393710	-0.09502657135564285
140	0x3f9263998a865192	0.01795806797015726
141	0x3f740ca7f059edac	0.004894882212848211
142	0x3fb66064fed6f569	0.08740836354896477
143	0x3fb363c5d336ab3c	0.07574116140919512
144	0xbfaf3b1a615359d7	-0.060997795467915665
145	0xbfc1bee7b7c65232	-0.13863846276639574
146	0x3fac76eba3dc9695	0.05559479117645797
147	0x3f8344672478dde8	0.009407811928311596
148	0xbf8ce35d4636529b	-0.014105538087087857
149	0xbfb7af7325f8881b	-0.09252090146085871
150	0xbfc82497daec8c5f	-0.1886167353596617
151	0x3f80bbf4e14df69f	0.008170998693226848
152	0x3f5862b4932c5d2a	0.0014883769442287178
153	0xbfb586a623a8999e	-0.08408583040782111
154	0xbfb94a4b002024ce	-0.09878987076821774
155	0xbfc309eac8b5adf2	-0.14874014663961038
156	0xbf6e0d508b99a4a6	-0.0036684582853934887
157	0x3fb50f7d590b29e5	0.08226760314861499
158	0xbfbed8b09b68bcae	-0.12049392503898801
159	0x3f7b7c0a31312b94	0.00671009045897621
160	0x3fc39c876f45c4d2	0.153214387256901
161	0x3fac649e1ca362fd	0.055455151553990924
162	0xbfc30ccc2ade2138	-0.1488280495943941
163	0x3fb07dcaa31e4379	0.0644194267499766
164	0x3fc138547fb3f590	0.13453155742164968
165	0xbfb85294951d3669	-0.09501007690888631
166	0xbf9f80129b697ab2	-0.030761996017072142
167	0xbfae74a39731501e	-0.05948363514531273
168	0x3f7711ee957187a9	0.005632335632158738
169	0x3fb508467a466fea	0.08215752110703503
170	0x3fb669bc45169226	0.08755089461062279
171	0xbfc1ae31973f4147	-0.13812847027885253
172	0x3faf0a5dff0259a6	0.060625970248270364
173	0x3fa3a9096dc4996f	0.03839902367535585
174	0x3f77656073e08b52	0.005711914795059796
175	0xbfb188118218b37e	-0.06848248888191041
176	0x3fa057eab3584ebb	0.0319207519461577
177	0x3fba1b8a0f8f6347	0.1019827163685366
178	0x3f8a12bfa366d96f	0.01273107259190162
179	0x3fa27cef9eb48631	0.0361094361526394
180	0x3fa01a17ec0c1632	0.03144907719073976
181	0x3fc28da45745cee0	0.14494756947862353
182	0x3f77a92ab01c8e46	0.005776564359425479
183	0x3fcd35632b712ae7	0.22819175358957652
184	0x3fbeecedd3db4dde	0.12080274984628356
185	0xbfb6309be9356cfb	-0.08667921489307055
186	0xbfa19164deb84af9	-0.034312393367278156
187	0x3fbc2b06eae8d5c4	0.11003154025168899
188	0xbfbb78c1d46db00d	-0.10731135784379849
189	0xbf952c4484ecb0a9	-0.020676680195877015
190	0xbfb5945db576a8ac	-0.08429513626348023
191	0x3fc205b3a240a66e	0.140799001908181
192	0xbfa8ed67be5eae65	-0.04868625830507937
193	0x3fba093a78b6cca4	0.10170331427689178
194	0x3faa20c0f4ac0de9	0.05103114115447822
195	0xbfc02cfc85dcd5cf	-0.12637287651311488
196	0x3fbe181dadf8a519	0.11755547997804107
197	0x3f9c5e463e6496a3	0.027703378255998456
198	0xbfb1fafcb01eff43	-0.0702360086424934
199	0xbfb00fd804bc4127	-0.06274175754174803
200	0x3fc452d2b7a3cc41	0.15877756087101783
201	0xbfaeb8c3ef5535b0	-0.06000339790862641
202	0xbf74f218dad452c0	-0.005113694275924174
203	0x3f913716ace07f3c	0.016811708737918027
204	0xbfb6040ab868ff61	-0.08599917413903092
205	0x3fb8339cd4dd6f62	0.09453754612826296
206	0xbf9c69f824194761	-0.02774799080209023
207	0x3fab42b9c1c5243c	0.05324345102651093
208	0x3fb362c30777bb3c	0.07572573597256577
209	0x3fbc3e0d97ef9436	0.11032185515758006
210	0xbfaea5009adb2927	-0.05985261812527858
211	0x3fc912fff0c40624	0.19589232689035996
212	0xbfc1feff8ed7cc9c	-0.1405944297290248
213	0xbfb125977d99235e	-0.06697985473978238
214	0xbf799e99df27b93b	-0.006254769383742971
215	0x3fc64d29fa92a9a6	0.1742298577785963
216	0xbfa39220937c3baa	-0.03822423744542587
217	0x3fbbf709dc14f60b	0.1092382585820461
218	0x3fbbf21478d2af30	0.10916259717731402
219	0xbf82d2a901dcf308	-0.009190864915234367
220	0x3fbebc4341c49f0e	0.12006016116776783
221	0x3f46bbb3cb4b59f0	0.0006937625790566764
222	0xbfb53a9914918f9f	-0.08292538406527548
223	0xbfa703bf9aea7153	-0.044950473461741546
224	0x3fba23ba0109041f	0.10210764432214646
225	0x3fba5a8edfb76ab6	0.10294430696323328
226	0xbfb643d56cd6baed	-0.08697255999753013
227	0xbfb2c84e76d2ce36	-0.07336893464053493
228	0x3f9d2054378a4516	0.02844363774290056
229	0xbfb2401641b51a7e	-0.07129038910088956
230	0x3fabee1d3385ee81	0.05455104116387322
231	0xbfb02f56d70e0f61	-0.06322233915676413
232	0x3f60169d68ae7f98	0.001963908614428033
233	0x3faafb48386d2583	0.05269838036344778
234	0xbfc521e397589b9a	-0.1650967110628841
235	0x3fb1fad0e71645c7	0.07023339883587375
236	0xbfab421b3a7feffc	-0.053238726512034845
237	0x3fa41cae515f5a71	0.03928131812397318
238	0xbf969fe77bc5f847	-0.022094361238025575
239	0xbf95f2df9d772aed	-0.021434301362925835
240	0xbf8ce27d29eef995	-0.014103868334015593
241	0x3fc5a2f2215a13e7	0.16903521183499423
242	0xbfbd78a287885fc3	-0.115121992196122
243	0xbfa4a2c38b215d2c	-0.040304289563830004
244	0xbfaea9a7b9559b43	-0.05988811623938386
245	0x3fc4308cc29ee741	0.15773162367787033
246	0x3fc0c22415e47d0b	0.13092471188517893
247	0x3fa7cd0737d87ac6	0.04648611599644918
248	0x3fbe55a7ee5a7623	0.11849450654195741
249	0xbf9d1f1deb1bf1ac	-0.028439013934063048
250	0x3f8b6f5f5e394aea	0.013396019995672376
251	0x3fa12bb1732ca214	0.033536477383965174
252	0xbfc3027907577bf6	-0.14851296289904753
253	0xbfb32233147e9cd5	-0.07474059343677493
254	0x3fb5d140a0600922	0.08522418895157505
255	0x3fc3bb217aead95b	0.15414827825379515

Combine.weight f8 [1, 1, 15, 99]
0	0xbfd8d5c3d2879382	-0.3880471759751388
1	0xbfc24e092e62bb82	-0.14300646557736846
2	0xbfbf79e088de4926	-0.12295344678412742
3	0x3fb7c207a51b459b	0.09280441075249828
4	0x3f6e98dbb0b2f5a9	0.0037349978279894347
5	0x3fd0a605f5f34447	0.2601332570894254
6	0xbfbe87932857cdab	-0.11925620779930195
7	0xbfd330d3ae0d34b0	-0.29985515591836087
8	0xbfb4713f12c2b4cb	-0.07985300262471921
9	0xbfb4af71f30de67a	-0.08080208000128578
10	0x3fb6526f3bfcef13	0.08719535078574507
11	0xbfce8f6b7061afc9	-0.2387518213976121
12	0xbf8a94f7c3cd07c9	-0.012979446089619888
13	0x3fb8a4c6611699e8	0.09626426573104363
14	0x3f9faa3b92eed2a3	0.030922823756287198
15	0x3fb5884644b5dfe5	0.08411063363553202
16	0x3fada3614187f935	0.05788711476269485
17	0x3f69d7fb839c0352	0.0031547462830307316
18	0x3f2467e236302097	0.00015568386433551372
19	0x3fb05de65033e48f	0.06393279512475857
20	0x3f9255404845eeb3	0.017903332148746908
21	0xbf4ae91778f5b3ec	-0.0008212437259494921
22	0xbfb00b119042f177	-0.06266889354714587
23	0xbfa325bdd10c55b6	-0.03739731957299901
24	0xbfa6294a7adeaab7	-0.043283774851564365
25	0x3f8d99c0edf212fb	0.014453418027423384
26	0x3f8e17173cb37a59	0.014692479648542521
27	0xbf8fa1d3399b25da	-0.015445375628945369
28	0x3f9a10a60aec3c85	0.025454134384798727
29	0xbf83f75f3f88d3c0	-0.00974916851655816
30	0xbfb381fbd2702e0c	-0.07620214355136329
31	0xbf9d50c20ba69af7	-0.028628379784687543
32	0xbf95787fe4f1fdb3	-0.020967481945715693
33	0x3f863a7817d3db7c	0.01085370848384825
34	0xbf92715657bf04b8	-0.01801047239837736
35	0x3f618d124719ec1c	0.0021424633967490735
36	0xbf6d4b87929f9d27	-0.0035760543732866914
37	0x3fa64648d8554441	0.0435049785688837
38	0x3f89dab20e3a2ca9	0.012624159869366674
39	0x3f75d9b44fc24991	0.005334572164559141
40	0x3f983c1b3bdbf614	0.023666787651555124
41	0x3f98b87735b606da	0.02414118066145119
42	0x3f753bef78cb8134	0.0051841120118470314
43	0x3f937f5b8d99bb57	0.019040518300637767
44	0xbf9574b1873928b6	-0.020952962759374492
45	0x3f7635ebcf7fe194	0.005422516951505325
46	0x3f83763237305a40	0.009502785023909444
47	0x3f92c3f7092cf938	0.018325672087706496
48	0xbfaf9afc8daee2e6	-0.06172932843714367
49	0xbf81c853e02dac56	-0.008682875899202507
50	0xbf5fd3053eaa2235	-0.001942401048525733
51	0xbf9e660fc344c747	-0.02968620900464394
52	0xbfafa85e4e9d4782	-0.0618314238514719
53	0x3f87d8f2e9806ffd	0.0116442658909861
54	0x3f902365f4855725	0.015760033654564815
55	0x3fa19e56869580ed	0.03441114800330234
56	0xbf90a39004eb3ea3	-0.01624894170782788
57	0xbf67335949051752	-0.0028321021892762444
58	0x3f6011991806672e	0.0019615163912022537
59	0x3f840763b5024b69	0.009779719315962958
60	0xbf83671e5d27fb97	-0.009474026887799343
61	0xbf687cac78c238e1	-0.0029891365612178954
62	0x3f91af2cf74a7c45	0.017269804566805175
63	0xbf7530b9da190b69	-0.005173421844633854
64	0xbf70f67190a6d024	-0.004141276944597681
65	0x3f952672f17af9d6	0.020654483784477616
66	0x3f8e246c372d1c13	0.014717908319324768
67	0x3f6a5b98501671d5	0.003217504011173692
68	0xbf8c006af3b06d75	-0.013672671853831567
69	0x3f7393e699d478d8	0.004779721054801032
70	0xbf52ba6c322b8d0b	-0.0011430794335687857
71	0xbf929523c94f34d3	-0.01814704815096919
72	0x3f87e6213f1ba808	0.011669406641392058
73	0xbf8b823d95309231	-0.013432007899674666
74	0xbf64612157043f24	-0.002487721554764637
75	0xbf824f253041b1d6	-0.008940020117926755
76	0xbf95cdbdc0889b24	-0.02129265296585027
77	0x3f5cc446387adb7b	0.0017557798145568504
78	0x3fa36389abf5e3c0	0.03786878799559856
79	0xbf9e82be6a971c0a	-0.029795623069528467
80	0x3fa4d27113f49854	0.04066804283711237
81	0x3f93915f77c279f7	0.01910924118475951
82	0xbf866d9fffacf564	-0.010951280584431351
83	0xbf98cb46223c40f1	-0.024212928618966015
84	0x3f9ef016a28b698e	0.030212739630636025
85	0xbf8f8e972e2ea058	-0.015408688637606513
86	0xbf9eb73257193b4b	-0.02999571472747257
87	0x3f8566914fd9183e	0.010449538468616845
88	0x3f8bd0fe375472dc	0.013582216323407996
89	0x3f9cbf47d0dfe143	0.02807342731827701
90	0xbfa35ee9b424de6a	-0.03783350299857775
91	0xbf92adbd6233bf19	-0.018240889662535318
92	0xbf69a54c72638739	-0.003130578336922787
93	0x3f5dbf6c1242f51e	0.0018156581291315986
94	0x3f7ed98357a6736d	0.007531655365167517
95	0xbf5bd2b5135c70ea	-0.0016981857601825975
96	0xbf8b5af2d5367b91	-0.013357064372767432
97	0xbf5f32949c725a92	-0.0019041491775958802
98	0x3f7e5e075f474ca0	0.00741389159925912
99	0x3fbbf07a548d6cdc	0.10913815082806216
100	0x3fc903c3debeac97	0.1954274022694775
101	0xbfc04cdc0a0d1166	-0.12734556666158453
102	0xbfd22c06fdcc91a8	-0.28393721375530356
103	0xbfd2382b373afbdc	-0.2846782721862249
104	0xbfb5bef897b4f529	-0.08494523719578652
105	0xbfc1ef5060b75ff6	-0.14011578295207955
106	0xbfc1e922882bf730	-0.13992721222887772
107	0xbfc1251209f41c3d	-0.13394380079282256
108	0xbfc3e02544a92a54	-0.15527788021639088
109	0xbfbd9fcbc7b224a3	-0.11571954369914521
110	0xbfa97e85aacd89bc	-0.049793412303887646
111	0x3fb454ce72252456	0.0794190434145475
112	0x3fbea1ef2fd8c0b7	0.11965842168933959
113	0x3f99890fdcd7ed4e	0.024936912397590043
114	0x3fc7aace3ba2db7f	0.1849000731651493
115	0xbf614cbfacc3d263	-0.002111791958777241
116	0x3f9d7a40502e8af4	0.028786663907918134
117	0x3fb83db6b20e4c5b	0.09469167563502039
118	0xbfb0c558b02fcfc7	-0.06551126767573044
119	0xbfbb430a6dbe4c8f	-0.1064917104652514
120	0xbf9f2ba8655c5eb1	-0.030439978777478675
121	0xbfad6965c4db8a49	-0.0574447443775808
122	0xbfaff31afd9bfb6e	-0.06240162225548472
123	0xbfa0f811bc5ea548	-0.033142618412350944
124	0xbf2c6453606017ab	-0.00021661298541192134
125	0xbf92800b32a311cd	-0.018066573110233897
126	0x3fa231cc5d76abd1	0.035536180886388664
127	0xbf8c9bfce791f1c8	-0.013969398323973162
128	0xbf931d92625d165e	-0.018667495015753814
129	0xbfabc3f727578c92	-0.054229472687233785
130	0x3fb16840c820644b	0.0679970253553545
131	0x3f9e906190b5c8ac	0.029847645242121842
132	0xbf636e749a7d200a	-0.002372005215793398
133	0x3fa74d7ea93bf20a	0.04551311317297653
134	0xbf859b35f1e0e8cc	-0.010549947208449949
135	0xbf9a0827acfb4b4d	-0.02542173379226691
136	0x3f63d87cf4dbf798	0.0024225655132558803
137	0xbf97bee61aef2d92	-0.0231891588153253
138	0x3fa1ce7dde1b28e6	0.034778531420288236
139	0x3f84fa7b40a8a0df	0.010243380461432526
140	0x3fa2d9943191d409	0.036816245127660414
141	0xbfad288b4bfb9b65	-0.05694995214962865
142	0x3f940b3f087ce864	0.019574150937139115
143	0x3f38950939dccbe7	0.0003750941776729508
144	0xbfaad7669295e540	-0.05242462672590387
145	0xbfa3d2d0938f9f37	-0.03871776391298314
146	0xbf7368ac6b9915eb	-0.004738496319594425
147	0x3f88d4c93750c233	0.012124607086748096
148	0x3fbc7f34deec7df4	0.11131601755595694
149	0x3f9833ef1c762ed8	0.02363561259475841
150	0xbfa44d593a1190d1	-0.03965262254567537
151	0xbf8c460fb5d55f79	-0.013805506455056836
152	0x3fa58621f39e2f2e	0.04203897570468339
153	0xbfaa6fb48b978d2a	-0.05163349346164588
154	0xbf9b9c71bc03aa03	-0.02696397504852578
155	0xbfa84360728ac437	-0.04738904379099334
156	0x3f895270ed260387	0.012364275204846965
157	0x3fa510dbed247ea4	0.04114424962813004
158	0xbf8a68ba7fa5f51e	-0.012895066280857178
159	0x3faf7414d9ff4130	0.06143250619027396
160	0x3f9fd0a4cfa9f7ce	0.031069350409317846
161	0x3fa343fbdf35885a	0.03762805080147365
162	0xbf967afe47cd9d5f	-0.02195355714084479
163	0x3fa04cb18e6cbb1e	0.03183512557585842
164	0xbfb472e129e98315	-0.07987792275663382
165	0xbfac7b5414b63a80	-0.05562842133359869
166	0xbf88ce5475ec5bff	-0.012112293099148628
167	0xbfacdad1104cb05c	-0.05635693859071075
168	0x3f724a47ae4edc65	0.004465370181541227
169	0xbf87ffae53c24e25	-0.01171814149009893
170	0xbf76d63b35f5faf9	-0.005575400631072419
171	0xbfb75ecb026392d4	-0.0912901764709873
172	0xbf83eb252b8e0b15	-0.009725847617806186
173	0x3f830370d433b017	0.009283906436813578
174	0x3fa462f62d05b954	0.0398175172766623
175	0xbf7b421270f2b112	-0.006654808078718115
176	0xbf85c30fe5b88a3a	-0.010625957677864329
177	0x3fb01a9ad1f176ba	0.06290595651213496
178	0x3fa08b9bac92fb09	0.03231512529008824
179	0xbfa67342cc9d904c	-0.04384812114474865
180	0x3f94813a37a5c223	0.020024213453725303
181	0xbf6856236073f18a	-0.0029707613899729356
182	0xbfa0ced88218acc7	-0.03282810772028593
183	0x3fa799f3232bcca6	0.04609641842207539
184	0xbf86e68192d72ef0	-0.01118184308406664
185	0xbfa9d6ef988c25e2	-0.050467955943599
186	0xbfac9040eab6e9b1	-0.05578806748549726
187	0x3fa3bde158c40510	0.038558046422631276
188	0xbf93cf9143899827	-0.019346494433556096
189	0xbf9213b75335d1b3	-0.01765333600401826
190	0x3fa26477eb28f0e9	0.0359227633057076
191	0xbf9201e454c2454f	-0.01758534209563339
192	0xbfb0577af655f817	-0.06383484376962688
193	0x3fa436c7969b9f5c	0.039480435499909844
194	0x3f888c1cab1e8ed8	0.011985992405079512
195	0xbf886e7053698088	-0.011929395242248356
196	0x3f9290e32d251b3b	0.018130826597622756
197	0x3f93fd7ca9c0262e	0.019521663532975513
198	0xbf9a3c524a033262	-0.025620733039249173
199	0xbfb853abb40a7840	-0.09502671380548211
200	0xbfb7788aa35f4c9f	-0.09168306816654813
201	0xbf911c0d4e4e2f2e	-0.016708572296507622
202	0xbfbedbce9abc9b7c	-0.12054148938896775
203	0x3fb9d407bc207484	0.10089157431544221
204	0xbfc1262147b9cc2a	-0.1339761352752203
205	0xbfb71f9523e7fe2f	-0.09032566191307788
206	0xbfe017f77b6ef609	-0.5029256258782776
207	0xbfc70d898e718ce8	-0.18010062651874326
208	0x3fd0ca8fbbd429ac	0.2623633703484767
209	0xbfdabb229ed0a196	-0.4176718283584021
210	0x3fca3e3c3c90fc16	0.20502427060452594
211	0x3fbca1b59f4a0d4c	0.11184249056718903
212	0x3fbf5cdd536d0c43	0.12251075064436727
213	0xbfc02b7ea03a218b	-0.1263273508414041
214	0x3fbb6e3f1e603742	0.10715097896192297
215	0x3fb5383dfb5b81db	0.08288943659454821
216	0x3fbfd9b1ec984d75	0.12441551233523802
217	0x3fa0c2404001431c	0.03273201733884987
218	0xbfbc8021c2a01d08	-0.11133013726804475
219	0x3fac6075bee77cdd	0.05542343097089895
220	0x3fa3afdc6bac0040	0.03845108808855047
221	0x3f859294bda4faf7	0.010533487355699018
222	0x3f868aeb03f159d2	0.01100715261251831
223	0x3fb9357abcd574f9	0.09847228155327405
224	0x3fc16dff482b59c0	0.1361693479909274
225	0x3fc3479bc983d5f5	0.150622819324482
226	0x3fc3f81992ae20d4	0.15600890791052413
227	0x3fb0352f0611c14a	0.06331151865174892
228	0xbfaaced18487c5ad	-0.052359149387381045
229	0xbfb6aef9d256ac2a	-0.08860741982668743
230	0x3f6769fb95550569	0.0028581536995779156
231	0xbf901823521e9288	-0.015717079054996336
232	0xbf7093d9e8d54834	-0.0040472519006744985
233	0x3f90dbbcf14b0099	0.016463234164576155
234	0x3f9315a74a00db00	0.018637288944058916
235	0xbf82508937e451bc	-0.00894267274683435
236	0xbf8e7f5065e358ad	-0.01489126978814811
237	0x3f8132402803ef93	0.0083966266833995
238	0xbf94b879c612ec37	-0.020234968866798844
239	0x3f7b94c7b33c08cf	0.006733684614802906
240	0x3f8f5cc779320437	0.015313681017007237
241	0x3f9adc3fc7366260	0.026230808767282787
242	0xbf87d60dfdcd0a82	-0.011638745601549209
243	0xbf6dd4344f810a62	-0.0036412259760550273
244	0xbf833d2064a252c4	-0.009393933364017733
245	0x3f95b5d8ee4c3708	0.02120150522664857
246	0xbf82749928ceaa6a	-0.009011456067885965
247	0xbf8da05f4158e463	-0.014466041738261553
248	0x3f95c6171cb447cf	0.021263466956106754
249	0x3face05c0cf4064f	0.05639922769661309
250	0x3fb8bd6f3291c3bf	0.09664053902248691
251	0x3f5d94304e808bcb	0.0018053504700297092
252	0x3f90a9eefcd5ea87	0.016273245031224206
253	0x3f9eb2a6d51ac5ef	0.02997837711035872
254	0x3f96abd6bde2300f	0.022139888133594406
255	0x3f93839aa91c2a15	0.01905671746411926

scale.0.weight f8 [1, 1, 100, 2]
0	0xbf80e7c0f70444ee	-0.008254535234785778
1	0xbfc3751ba467d487	-0.15201135184876
2	0x3f9c212874b99be5	0.027470237850504637
3	0x3fb910398fce98d1	0.09790382157243306
4	0x3fc57dd9e0ae2c61	0.16790317030640536
5	0x3fc2326ea13b02a4	0.14216406700690698
6	0x3fb25411edd09206	0.0715953069307674
7	0xbf96b6d3a7064637	-0.02218180376946163
8	0xbf62b3bf781368a4	-0.002282976115208406
9	0x3fa03b02c6006074	0.03170021693239358
10	0x3fd12b95a68a1463	0.2682851911889143
11	0xbfabba032c072c49	-0.05415353691531572
12	0x3fc807dec3808429	0.187740178546876
13	0x3fb07153bee60bb5	0.06422923479662652
14	0x3fd310bc210da7e7	0.2978964159761958
15	0xbfbce2945536d085	-0.11283232765600999
16	0x3fbdb0bb59c7a400	0.11597796384707237
17	0xbfc510a80c5861db	-0.16457081415934635
18	0x3fc9bd719c15ebe3	0.2010938655983799
19	0xbf96a0a3e2a64209	-0.022097168644508645
20	0x3fc0bd56c1b82e6a	0.13077816447217866
21	0xbfabe35cd2021639	-0.05446901382041997
22	0x3fc4e6d62fa81031	0.16329457594849964
23	0xbfc46494f50581c5	-0.15931951488438592
24	0x3fa8572b5ea6299d	0.04754004984268365
25	0xbfcecbb17ca7168a	-0.2405912264495565
26	0x3fbd70d2751a21f1	0.11500277861535559
27	0xbfb8bc247ecb068c	-0.0966208276322737
28	0x3fac53dc7966b7ff	0.05532731038998406
29	0xbfb884c9b0a0e3b4	-0.09577618181437125
30	0xbf9fd39e83aeefdd	-0.031080700671495144
31	0xbf8cfebeedc28385	-0.014157764082769262
32	0xbfbe224d04c26a52	-0.11771088949391498
33	0xbfa8051d01fe3ce1	-0.046914011472034785
34	0xbf7e5fef2fd0c264	-0.007415708850246536
35	0x3fa2795719410554	0.03608200248028007
36	0xbfbac0aa8634e5e4	-0.10450235153702853
37	0x3fc442612ff2a6c4	0.1582757457847973
38	0x3fc07d5c51c22547	0.12882570259197676
39	0x3fe28121292178f0	0.5782628825507157
40	0xbfca3c174bf0d730	-0.20495883186384267
41	0x3fd3eb1bf2258b3c	0.31122492453703265
42	0xbfa7d0d85e489717	-0.04651523734018619
43	0x3fc249cc1fbf36a1	0.1428771166815084
44	0x3f5a857ff97ebc6a	0.0016187429191452337
45	0x3fc14da80d66665a	0.13518238691613044
46	0xbfa6a6d5816f924e	-0.04424159245516944
47	0xbfa89e9bd1039bf7	-0.048085088028351146
48	0x3f8c5299db0a5014	0.013829423901633255
49	0x3fb78a4068f444f0	0.09195330202443919
50	0x3f7fa42175f1eaaa	0.007724886613795926
51	0xbfa5fd407576a613	-0.04294778283958691
52	0xbf8b36a6f484efe1	-0.013287834488998786
53	0xbfa547704d386083	-0.04156065886144324
54	0xbf855831adf709e3	-0.010422123071184458
55	0xbfb71f5f1611a6e6	-0.09032244004051967
56	0x3f5cfa7daf6f8b3e	0.0017687060733286432
57	0xbfb41f8fc4823033	-0.07860659167835209
58	0x3f5e1ddfa2dc7134	0.0018381771037133234
59	0xbf885ca29e8f0fbe	-0.011895437682944873
60	0xbfa339e6dcfaa126	-0.03755113074777432
61	0xbf4a83842df0665c	-0.0008091349990337437
62	0xbf8789c540c022c8	-0.011493245161561375
63	0xbfb2e7e0d7bdc8b4	-0.07385068194506311
64	0x3f8bcaa262e45231	0.01357008804601731
65	0xbfc5686ab62360bc	-0.16724904912439864
66	0xbf92d076395d933e	-0.018373343707384075
67	0xbfc1beddb2fd2a2c	-0.13863726844495383
68	0x3f63d074d31451d7	0.0024187356690481376
69	0xbfc6baa0f47aec61	-0.1775704568625285
70	0xbf7eab97d43dd1c3	-0.00748786266546059
71	0xbfca1856650e2b51	-0.20386772093146502
72	0xbf8b16151e1c30ee	-0.013225712758434285
73	0xbfaaf6c1f69e5649	-0.05266386161308085
74	0xbf0280ce721a6c91	-3.529195806813949e-05
75	0xbfbbfe356810af43	-0.1093476656976096
76	0x3f81e4a2ea2bebe3	0.008736870547627567
77	0xbfc138bdb5c0209a	-0.1345440995648957
78	0xbf54803ba2a01a21	-0.0012512762427846563
79	0x3fa9a0a8ec401448	0.05005386241831694
80	0xbf827494f2dd8436	-0.00901142469564507
81	0x3fb5b0487d66ddd2	0.08472111760681081
82	0xbf8853769ed14b32	-0.01187794372723303
83	0x3fe78eb374cbb3cd	0.7361695557752853
84	0xbf8d4f6e42597221	-0.014311658286879471
85	0x3fed2c767a81fe43	0.9116775887232013
86	0x3fa48a1f0d4a17f5	0.04011628186439956
87	0x3fe42bc5b43c6327	0.6303432960731684
88	0xbfb9c173beb78673	-0.10060809522794915
89	0x3fc8af92558975ea	0.1928580205593982
90	0xbf9b09fb6152b78c	-0.026405265631801053
91	0xbfca76e10fe32b7f	-0.2067529037070379
92	0xbfb17884fbef0878	-0.06824523115850123
93	0xbfd554848f148a86	-0.3332835576312977
94	0xbfc223aee2d91ea6	-0.14171396328514624
95	0xbfe0dace27c25508	-0.5267096306367032
96	0xbfdc0f3f0af94fc5	-0.43843055793444946
97	0xbfe9fbfaebb3aaa2	-0.8120092967559069
98	0xbfe0d035eae65286	-0.5254163349041654
99	0xbfe6b330744c28f0	-0.7093736907420674
100	0xbfdb84381a1e44ec	-0.42994501638993543
101	0xbfe4250a7c77f2cb	-0.6295216017748201
102	0xbfd490f1c3ed0e47	-0.3213467038478694
103	0xbfd37f4cf5bc558e	-0.3046448135149483
104	0xbf960fda8be3eece	-0.021544852054815426
105	0xbfd050d5f2754cee	-0.25493382146414845
106	0xbfa946055be02612	-0.04936234232452476
107	0xbfb3fa8f01855d82	-0.07804197108395353
108	0xbf8609378adf1d61	-0.010759767461321958
109	0x3f9f4463dc3dbb85	0.030534324948742437
110	0xbfbc4ceca54ae6e3	-0.11054877315009608
111	0xbfb080c3d5f8f751	-0.06446479772509163
112	0x3fc06addac161044	0.12826128866811548
113	0x3fc93c2f91045734	0.19714922505289112
114	0x3fc31e78f3e7a9e5	0.14936744603558263
115	0x3fb9861dcbeaed30	0.09970270374735857
116	0x3fbb4a882083fc66	0.10660601419293556
117	0x3fb3a9caae9ff3f0	0.07680956614781542
118	0x3fcd5816172e8179	0.2292506802741732
119	0x3fcd2f3f0aa72e8d	0.22800434131783157
120	0x3fb8c1052365e30e	0.09669525255402453
121	0x3fccae012702c66d	0.22406019596887763
122	0x3fc38897cbafd829	0.15260598607682255
123	0x3fca6e8f616739bd	0.2064990258790668
124	0x3fc1d71e8581ac85	0.1393774177443882
125	0x3fc95e3a3399edae	0.1981880905112638
126	0x3fd20ac48dd797d4	0.28190721370481
127	0x3fd6837fe0bbad1b	0.3517760939273146
128	0x3fba88c24d1f964b	0.10364927657027427
129	0xbfb620af2e3d66b4	-0.08643622282888935
130	0x3fc272236517ebe7	0.14410822330668724
131	0x3fd5711a90ca6668	0.3350283063860844
132	0x3fc9566d583fb74a	0.197950046625403
133	0x3fde618d790a1d60	0.4747041399027321
134	0x3fc1da2a35e2fd4d	0.13947036391435078
135	0x3fd75325db0eaefc	0.364449943469239
136	0x3fc1669168345338	0.1359426268396875
137	0x3fdfd392f8d5a147	0.4972884588264787
138	0x3fd02aee8b7bf362	0.2526203500890941
139	0x3fe13a76ba532c92	0.538386691966837
140	0x3fc059f169193627	0.12774484283220142
141	0x3fe57b48a8290faa	0.6712992939360352
142	0x3fb34d8914ad1e2d	0.07540184740820939
143	0x3fe156fa06b3d64e	0.541867268648909
144	0x3f91c4420eeca991	0.01735022750941934
145	0x3fe85b008258259a	0.7611086412227224
146	0x3fcedb224e89a1cf	0.2410624392971514
147	0x3ff0ba33d52a17b4	1.045459587739498
148	0x3fc15404f03e1785	0.13537656527131162
149	0x3fea6f16af80cc1e	0.8260606220050055
150	0xbfacfb2cf9a6e90b	-0.05660381839284597
151	0x3fdef999a29eb10b	0.4839843834004262
152	0xbf8ce8c834b8742a	-0.014115871533301034
153	0x3fe23209fd3511b0	0.568608278794775
154	0xbf8c0b65ed5c1160	-0.01369361525167595
155	0x3fdfb9ee66a52702	0.4957233431237996
156	0x3f9f25d48c0f16d0	0.030417748497504615
157	0x3fded43190f1ca1a	0.48170127062545165
158	0xbf9a51747fb5b4b9	-0.025701351446902197
159	0x3fe39fcbe874a44d	0.6132564106129706
160	0x3f90530bb300b736	0.015941794205154035
161	0x3fe2ba512bb61e4f	0.5852437833536416
162	0xbf725fbf63de183c	-0.004485843293769828
163	0x3fdeacd5e4ca4dfd	0.47929904310987564
164	0xbf863edc50eea39a	-0.010862084598402256
165	0x3fd5a46cc2ced695	0.3381606962605955
166	0x3fa93ac2c8283cec	0.04927643483471819
167	0x3fda8a9a55b988db	0.4147096478610714
168	0x3f70bf205725e210	0.004088522271893172
169	0x3fd7f26fd14a2f39	0.3741721671910799
170	0xbfb9fee53d9e2701	-0.10154564623203656
171	0x3fd0e2d5393d9aac	0.2638447817793501
172	0x3fa73970bdb88bfd	0.04536011043480668
173	0x3fd9cf6fbed79a9f	0.4032859195416822
174	0xbf9fe8c7ff93728a	-0.03116142747318177
175	0x3fd9f91621708f62	0.4058280302581264
176	0xbfb5edae6f6eaca8	-0.08565798016086268
177	0x3fd37c71935c9c15	0.30447043791576905
178	0x3fa2399154bcd456	0.035595456689784186
179	0xbfe33b9e9241567f	-0.6010277611300835
180	0x3fcbaa7fcbcd2d2a	0.216140722763478
181	0xbfea783bcfa5d234	-0.8271769576663872
182	0xbf9eb6197be8466d	-0.029991529643729132
183	0xbfe2bb2d7f3ccd1e	-0.5853488431079403
184	0xbfb1c6b80d5b1e00	-0.06943846059868264
185	0xbfe68a5f9e4bcfc9	-0.7043912975045653
186	0xbfa5a986120450b0	-0.04230898828441931
187	0xbfe6e8ccd402189a	-0.7159179821762962
188	0xbfb335093b12f03d	-0.07502801601634786
189	0xbfe6ee791756d70d	-0.7166104751438255
190	0x3fa0129d42653ca9	0.031392015795625845
191	0xbfe4bfb1cc5dbef5	-0.6484002105262038
192	0x3f782434db34f823	0.005893904180366535
193	0xbfd7b0aefc8d82a4	-0.370158907540864
194	0xbfb7af0c285bd51d	-0.0925147627384217
195	0x3fdb8b7fdbc6c753	0.4303893705610921
196	0xbfa7296d208dc3de	-0.045237932418679114
197	0x3fd1d203f2a6bec4	0.2784433240549158
198	0x3fbd2eb5526244b8	0.11399396191906674
199	0xbfdf97ec54641fe9	-0.4936476539737656
