ML1/Spot.pt (torch, 25939 bytes, 7 tensors)

W f8 [3]
000000 66 08 61 00 82 5c eb 3f 74 79 1f d3 ff 21 1c 40
       0.855042458286573 7.033202456279799
000010 9c 7e 89 20 55 d6 27 40
       11.918618218215947

fit_cum_area.weight f8 [1, 1, 121]
000000 ae 34 9a 23 ee 29 31 c0 ad 39 66 ba 0e e2 30 c0
       -17.163789963863273 -16.883037233311985
000010 e6 37 ee f3 ea ab 30 c0 dc 07 35 0c e3 6d 30 c0
       -16.671553846033838 -16.429245722720097
000020 0a bf 6d da 1f 23 30 c0 89 aa f0 02 cc e8 2f c0
       -16.137204791825788 -15.954681484106247
000030 5e 34 6d 7d 70 6b 2f c0 0c f6 8e e8 af fd 2e c0
       -15.709842605190882 -15.495482699824628
000040 8d d2 46 6a 1d 96 2e c0 5d 3c 34 cd 25 30 2e c0
       -15.2931931697324 -15.094038403154793
000050 a5 da f5 b0 a8 d0 2d c0 c5 52 18 0f 81 7d 2d c0
       -14.907537012111172 -14.745125266760974
000060 96 3a aa 5d b6 23 2d c0 08 38 ec ba a8 db 2c c0
       -14.569750716237916 -14.42902168401271
000070 23 9c 1b b6 00 96 2c c0 93 04 75 1c 0e 6a 2c c0
       -14.292974177236891 -14.207138909611137
000080 a6 f1 25 75 48 4c 2c c0 d9 16 1d 90 89 4e 2c c0
       -14.148990307695225 -14.15339327197164
000090 2b c6 0d 09 ea 49 2c c0 60 53 99 ce 86 6f 2c c0
       -14.14436367314473 -14.217825370995058
0000a0 3b 76 13 8c fb 91 2c c0 e9 b1 60 a0 89 de 2c c0
       -14.285122277618134 -14.434643756679138
0000b0 f6 00 d8 bb 0c 18 2d c0 d2 4b 06 3e 0e 38 2d c0
       -14.546972150914808 -14.609483660000397
0000c0 cd 3b c8 f8 21 52 2d c0 d9 13 56 58 dd 6d 2d c0
       -14.660415434305742 -14.71457935381652
0000d0 28 50 9c 06 3f 62 2d c0 8f e5 a7 f8 f2 67 2d c0
       -14.691887098866644 -14.703025598998265
0000e0 94 49 34 b0 5e 4c 2d c0 5d c9 65 9f de 13 2d c0
       -14.649159914381734 -14.538807851004714
0000f0 54 8f a5 d4 54 d5 2c c0 9a 00 77 1b 8d 8a 2c c0
       -14.416662831506677 -14.270607813145308
000100 4f fa da ab 5d 44 2c c0 13 ee 87 51 75 e5 2b c0
       -14.133527155380902 -13.948160693972602
000110 a7 33 81 cf 15 68 2b c0 60 fe 80 00 c2 de 2a c0
       -13.703291401406956 -13.4350738675559
000120 a0 a4 0e e1 91 37 2a c0 63 d7 84 b0 a9 73 29 c0
       -13.108534844434246 -12.72590400334929
000130 b8 10 59 3f 92 87 28 c0 9e 5b ce a3 2e 8a 27 c0
       -12.26478765451644 -11.769887083950206
000140 53 e3 f3 3a 67 7b 26 c0 83 af 98 42 b0 47 25 c0
       -11.241021959563716 -10.64001663316572
000150 ab 7a c8 a9 e8 f8 23 c0 60 cc 75 1e 5e a8 22 c0
       -9.98615007946258 -9.32884307086914
000160 5e 2b 7a 7a 26 58 21 c0 c6 9c 8c 72 5e e2 1f c0
       -8.67216856709791 -7.9710634134600635
000170 10 95 25 b3 ea 43 1d c0 6f 5c 06 db dd cd 1a c0
       -7.316324996155586 -6.7010416243202675
000180 72 25 6b 5e 05 54 18 c0 16 ff 46 22 2d 5e 16 c0
       -6.082051730432214 -5.59196904714897
000190 3d 06 d1 b8 34 c6 14 c0 c2 67 2e 6d c0 76 13 c0
       -5.193560493238292 -4.865968423802714
0001a0 d2 c1 3a 3f f3 7d 12 c0 b5 3e 15 2e 09 00 12 c0
       -4.622998226128816 -4.500035018965424
0001b0 02 d7 91 87 98 ca 11 c0 db 0c 75 42 f8 ed 11 c0
       -4.447847479130134 -4.482392347711733
0001c0 15 b5 25 cc a6 4a 12 c0 83 33 ee 29 6e fe 12 c0
       -4.572901906777834 -4.748467116511963
0001d0 05 b6 5f 4d 31 01 14 c0 19 c5 39 7a b7 41 15 c0
       -5.001164635626542 -5.3141764734039265
0001e0 61 e6 a8 ed ad e1 16 c0 8e 0e 30 1e c5 77 18 c0
       -5.720390046533425 -6.116962882693441
0001f0 98 45 3f 99 ab 18 1a c0 8f a5 71 74 43 d7 1b c0
       -6.524092096792991 -6.960218257366605
000200 dc 97 2c ff 7b 89 1d c0 2a 85 58 d7 1b 23 1f c0
       -7.384262072655442 -7.784285893228381
000210 6a 15 8d 9c 97 52 20 c0 13 bb a9 33 10 03 21 c0
       -8.16131295416081 -8.505982984990203
000220 68 38 fd 71 f4 9b 21 c0 57 b2 c6 46 f8 25 22 c0
       -8.804599344406782 -9.07415982413765
000230 8a 75 a2 b1 ca a2 22 c0 e6 47 c9 c7 63 07 23 c0
       -9.317952681619108 -9.514433139152924
000240 57 27 ba 41 ba 60 23 c0 25 69 ef 5d 13 af 23 c0
       -9.688921026204907 -9.841944632983152
000250 ae 01 9e dc f3 ef 23 c0 22 30 9f b8 1a 1f 24 c0
       -9.968657392776404 -10.060750741417056
000260 b2 95 bc 6d 5c 4d 24 c0 68 60 13 c4 75 71 24 c0
       -10.15109579970417 -10.221601607671076
000270 63 84 a4 3a 87 8b 24 c0 b2 ad 36 ec 78 9f 24 c0
       -10.272516090948733 -10.311469442057248
000280 1c 71 b0 0e 63 ae 24 c0 bb 45 26 79 d9 b5 24 c0
       -10.34059949783164 -10.355174814149782
000290 8b ae ea c3 3e bb 24 c0 6a be 06 59 4d bb 24 c0
       -10.365713236234361 -10.365824491570681
0002a0 47 38 7b c2 fb b6 24 c0 62 51 73 ce dc ac 24 c0
       -10.357389524022564 -10.337622119500057
0002b0 9d 35 3b b6 0a 9f 24 c0 24 27 cf e2 35 92 24 c0
       -10.310628599860872 -10.285567367350787
0002c0 c4 3a 4c 74 f9 84 24 c0 2e 19 a8 f3 84 74 24 c0
       -10.259715685181966 -10.22757684161169
0002d0 dd b1 7a d4 c4 66 24 c0 ae cf 59 0e a4 5d 24 c0
       -10.200720443704023 -10.182892273391044
0002e0 3d 87 46 06 b8 57 24 c0 9e e1 bb 06 ce 52 24 c0
       -10.171325870618256 -10.161728105959636
0002f0 5c e3 45 52 64 4d 24 c0 72 49 a4 13 c0 4c 24 c0
       -10.151156016379609 -10.149902929119637
000300 fe 4f 2c c1 65 50 24 c0 8d 3c 2f b1 78 5b 24 c0
       -10.157026325854527 -10.178655182853868
000310 1d 59 62 b2 22 62 24 c0 89 64 78 0c b2 6a 24 c0
       -10.191670965676673 -10.208389653869988
000320 3d 70 f8 7a 2c 8c cd bf 88 38 a5 5a 46 a2 e7 3f
       -0.23084026340882416 0.7385589380662774
000330 74 0a e9 07 88 45 fb 3f 54 22 50 09 4c 6b 05 40
       1.7044754323002538 2.677391121633528
000340 ac 77 ba d7 13 2b 0d 40 ba d3 16 15 98 70 12 40
       3.6460339406757694 4.60995514823747
000350 90 39 a0 12 aa 54 16 40 c3 2c e5 8d 13 2f 1a 40
       5.582680026082372 6.545973031151507
000360 52 34 ca 24 5f 0d 1e 40 4f 98 62 f7 25 f5 20 40
       7.513058256951881 8.47880528524925
000370 bf c2 57 d1 f0 e6 22 40 39 91 77 6c 64 d6 24 40
       9.451056043589572 10.418734922023406
000380 f2 fa f0 7d 02 c9 26 40 68 4a d5 c1 62 be 28 40
       11.392597137133155 12.371847207342583
000390 89 21 de 83 92 b1 2a 40 ae 71 be 2d 92 a5 2c 40
       13.346820946565247 14.323380879876677
0003a0 54 59 92 5c ed 9c 2e 40 df 93 6c c8 0f 4a 30 40
       15.306498425354825 16.28930332804509
0003b0 95 c7 b1 63 88 4a 31 40 0b 22 ee bb d3 48 32 40
       17.291143637564875 18.284480806005416
0003c0 27 51 03 3e 5a 48 33 40
       19.2826269872759

fit_x.weight f8 [1, 1, 121]
000000 b4 17 f3 c6 79 89 0b c0 29 1d a9 b9 ef c9 10 c0
       -3.442126802724454 -4.19720354170503
000010 52 7d 1f a5 b2 d7 20 c0 bb f3 e4 3c b9 5d 1d c0
       -8.42128482827562 -7.341526938890577
000020 c5 a2 27 7b ab 95 13 c0 30 b2 fe 24 d6 9e 15 c0
       -4.896161960882357 -5.405113771481908
000030 89 ca c6 7a bb 6e 1a c0 ab fe 0e b0 36 38 0e c0
       -6.6081370529015055 -3.777448058564763
000040 db f2 d7 b1 10 0c 08 c0 21 0f 0d 15 db 07 1a c0
       -3.0058912176158237 -6.5076716698856965
000050 a6 18 ad d7 93 a0 17 c0 2b 9e 95 75 9d 36 0a c0
       -5.906813974323233 -3.2766675173077338
000060 37 3b 7e 09 34 a1 1f c0 a9 63 8f 2a e9 48 11 c0
       -7.907425068215892 -4.321201958658016
000070 1e a7 eb 76 da 8d 11 c0 31 88 55 1e 8b 8a 1d c0
       -4.3885286885577255 -7.385296319933375
000080 6c 87 71 03 a6 5a 1f c0 2f 2c 15 d0 d2 44 12 c0
       -7.838523916057834 -4.567210437099717
000090 b7 66 6f 61 49 8c 19 c0 8b 03 5e 4c b4 2d 15 c0
       -6.386998674797431 -5.294633095968389
0000a0 2a 7f d9 d0 a9 6f 18 c0 7f 5f cd 50 49 77 22 c0
       -6.109046233439395 -9.23298122889514
0000b0 6e ae 1e b0 ba 30 1b c0 dd 22 36 0e f8 a4 23 c0
       -6.797587158081667 -9.822205013378545
0000c0 0a 7f 96 e5 d0 b7 26 c0 4b 95 01 18 fa 54 1b c0
       -11.359015631314396 -6.832985282036428
0000d0 db b1 9a 11 24 31 23 c0 f7 bd e6 3e f3 9b 25 c0
       -9.595978307851444 -10.804590192476992
0000e0 8a 28 12 35 57 04 2f c0 03 fa 4d 07 05 04 2c c0
       -15.508477838961216 -14.007850864666585
0000f0 d1 f5 02 7c 97 86 2c c0 bd a0 1a d5 f7 50 27 c0
       -14.26287448440681 -11.658140811443781
000100 dc f2 5f 91 ea 2d 28 c0 e9 2b fe 0f aa 66 29 c0
       -12.089680235826954 -12.700516223694608
000110 ed 72 d0 cc c7 f1 29 c0 80 7c 2f c3 c5 43 2b c0
       -12.972227478452135 -13.632368182703658
000120 98 8b 99 83 f6 59 21 c0 a6 b5 8a c3 76 b2 23 c0
       -8.675708878033944 -9.848562346155472
000130 d9 7c c1 3d 27 94 20 c0 9b cb 7c e2 0f 2d 11 c0
       -8.289361886853316 -4.294005907885459
000140 93 17 96 66 c2 c0 24 c0 cc 99 d5 09 66 9f 24 c0
       -10.376483159848965 -10.311325366329491
000150 44 88 a5 7f ab 4b 23 c0 76 5e 62 52 36 c0 22 c0
       -9.647792805630282 -9.37541444254678
000160 68 b6 fb 18 3a ed 28 c0 1a f7 de 7a 0d bd 1b c0
       -12.463333874441744 -6.934621734484404
000170 fb 68 68 f2 dd e4 27 c0 79 d7 2e e8 e7 78 27 c0
       -11.947005820508357 -11.736144309728603
000180 a2 97 67 ae cd 3e 24 c0 4c 04 07 bd a9 4d 25 c0
       -10.122662973542734 -10.651685626131574
000190 f6 11 08 88 6f d1 24 c0 d7 bb 07 1f 73 4c 21 c0
       -10.409054041848304 -8.649315805143415
0001a0 79 bd 63 63 a8 73 21 c0 ce 5f 9c 42 e1 0c 22 c0
       -8.725894075322445 -9.025156098927166
0001b0 e2 9d dd 8e 25 74 26 c0 e6 3a 5e d1 ce d7 22 c0
       -11.226849045327018 -9.42149976992864
0001c0 27 7c 2c 81 31 f0 1a c0 6b ff 24 70 46 26 22 c0
       -6.734563845005176 -9.074756149784397
0001d0 56 cd 17 8d 34 5d 22 c0 0c ae a8 cb e2 89 1a c0
       -9.18204155841401 -6.634654218836214
0001e0 d8 56 60 4e 7c b6 24 c0 5e 1f 36 84 0e 77 1d c0
       -10.356417130718384 -7.366266313365342
0001f0 f0 f2 af e4 db 04 20 c0 92 a2 9b ca 01 a2 15 c0
       -8.009490152815005 -5.408209958790978
000200 ea 17 e0 0b df 9f 19 c0 fe 6e 33 31 2e 61 18 c0
       -6.406124291946961 -6.094902771724945
000210 2e 9e 58 c6 e1 86 22 c0 cb 6c e5 15 77 ea 1f c0
       -9.263441274945844 -7.9789699002532855
000220 61 6d 3e 64 02 3f 16 c0 8d 1b 4f 6d ed 95 1b c0
       -5.5615325606443955 -6.896413524583193
000230 b3 83 65 a7 2c d1 1f c0 c5 e5 fb 0d ef 35 23 c0
       -7.954271903582526 -9.605339467047893
000240 a3 6f d5 32 f2 10 1a c0 89 9d ce 2a 0f d2 1c c0
       -6.516548914219956 -7.205135983334352
000250 4e dd 34 dc 08 b6 18 c0 90 e8 28 07 3a 93 1d c0
       -6.177768173910705 -7.39377604663072
000260 34 ae b4 4b aa 27 20 c0 3e 4b 0b 03 bc b6 18 c0
       -8.077471128278468 -6.1784515834468134
000270 1e 9a 7b f2 ff d7 26 c0 63 3d 20 ac 80 9c 23 c0
       -11.421874597156656 -9.805669192252656
000280 1e cc 6a e7 76 0b 1b c0 a5 58 c7 f7 85 36 25 c0
       -6.7611957701620025 -10.606490843853246
000290 fb c8 06 76 41 cf 1f c0 07 bf 30 18 b1 d4 1d c0
       -7.95239815155423 -7.457706811881287
0002a0 11 62 b6 c5 a2 4b 1c c0 24 ef 0f b0 a2 76 1e c0
       -7.073863114601878 -7.615854979488891
0002b0 f4 4e 31 50 fe 4d 11 c0 c8 4d 5e 8b ed fd 2e c0
       -4.3261654405684915 -15.49595294500513
0002c0 79 99 9f 8d 6a eb 1d c0 14 2b a4 23 d0 a1 20 c0
       -7.479898655763798 -8.316041101255486
0002d0 9f 7b ae 02 44 09 23 c0 73 87 6b 19 b8 43 11 c0
       -9.518097003745252 -4.316131970584922
0002e0 db e9 43 6a 41 10 22 c0 82 bd 90 d7 18 b1 27 c0
       -9.031749077596876 -11.845892654818048
0002f0 f3 fa 9f 41 32 93 14 c0 1a f9 1e a6 5d 02 24 c0
       -5.143746400250836 -10.00462073448266
000300 56 6d fe cf 9b dc 21 c0 69 66 0d 9a a0 48 13 c0
       -8.93087625485229 -4.820925147121309
000310 82 34 af d9 9f d5 28 c0 53 fb b2 2b 72 d0 32 c0
       -12.417235186230986 -18.814242106625283
000320 c5 5a b1 62 52 77 20 40 97 20 37 e3 14 b2 05 c0
       8.233050426625946 -2.7119539023588675
000330 75 8f 0b d1 0c a7 2a 40 4d b8 29 46 31 c6 13 c0
       13.32626965776556 -4.943547340675718
000340 98 8e 7a 49 13 a3 1a c0 bb ca 70 7f aa 9b e3 3f
       -6.659253261666571 0.6127521981309977
000350 74 4a 52 38 f4 3d 1b 40 53 57 a1 06 4e a8 1a 40
       6.810501937887796 6.6643601451849745
000360 b4 a5 86 ae 8d ba 20 c0 55 69 c1 66 e3 b4 23 40
       -8.364362195908008 9.853297434911534
000370 65 65 62 38 20 7f 23 40 64 af 0a a2 86 53 13 40
       9.748292696009864 4.831568271543663
000380 3d 46 a4 83 21 3b 2c 40 bc 38 e9 d1 3e c0 2d 40
       14.115490068247817 14.875479278296886
000390 c6 b5 33 c7 2f a2 2f 40 f3 f6 31 33 65 39 34 40
       15.816770768224966 20.224200439165497
0003a0 c4 11 c7 0a 6e 50 38 40 18 bb 49 10 97 84 3c 40
       24.31417910919278 28.51793004798955
0003b0 30 52 1a 22 fd b1 31 40 67 fe 5c db 77 48 35 40
       17.69526875631908 21.28307887096744
0003c0 6a 53 80 09 76 67 37 40
       23.404144853429365

fit_div.weight f8 [1, 1, 121]
000000 14 51 a5 5a c3 a2 0c c0 af f9 1b 0b 8e 1a 02 c0
       -3.5794741708470017 -2.262966238776435
000010 d4 be b1 da dd 0a 1d c0 d1 b9 6b 49 b6 5a 20 c0
       -7.260611931894989 -8.17717198791516
000020 b9 67 4b e2 32 ca fc bf 5d 69 bf 1d 7b 25 f3 bf
       -1.7993649329787174 -1.1966506158847416
000030 91 85 9d 16 44 37 1e c0 49 b4 a6 e0 7d c1 14 c0
       -7.553970673908581 -5.188956747221774
000040 15 7f cf ba 70 eb 0e c0 5e 53 ee 2f 76 2e 21 c0
       -3.8649611086438065 -8.590745447008597
000050 88 ad 9c ee 9b 7d 12 c0 00 9b 3c 1b 3e 2b 04 c0
       -4.6226651461723876 -2.521114552294762
000060 93 d4 b7 b8 a4 7c 20 c0 ee a6 a6 d2 0d 15 10 c0
       -8.243444225731116 -4.020560542508731
000070 82 a4 81 0f 09 95 10 c0 4c 8a 7e 52 1c 44 23 c0
       -4.1455423758390015 -9.633028581568531
000080 27 e5 83 72 64 0c 0b c0 37 c5 35 8d 00 1b 02 c0
       -3.3810509630681227 -2.263184645846788
000090 85 5a 31 98 7e e5 22 c0 49 9a 46 32 63 3f 23 c0
       -9.448231464409455 -9.623803683393946
0000a0 c8 fd 04 84 45 ba 14 c0 e2 8b f3 81 9b 8c 15 c0
       -5.1819058063551395 -5.387311964502233
0000b0 98 e8 67 a8 9e a0 2a c0 22 0c 56 e9 02 75 2c c0
       -13.313710463222648 -14.228537837747414
0000c0 0e e0 70 ab 76 c9 1d c0 88 11 f4 73 f5 2a 27 c0
       -7.44674175144611 -11.583903907340542
0000d0 e3 41 6e 80 a1 4e 32 c0 5f 34 b9 1d 94 95 26 c0
       -18.307151820104888 -11.292145661218624
0000e0 cb c9 a6 b0 2b 0c 24 c0 b8 26 6f be 63 c4 30 c0
       -10.023770828590292 -16.76714697087911
0000f0 a9 67 5c fa a8 5d 28 c0 f6 26 56 7a a7 b6 24 c0
       -12.182929824619196 -10.356746504799485
000100 68 08 0d 70 f5 7a 2d c0 d8 de 14 4f be c7 29 c0
       -14.740153791037486 -12.89012381677405
000110 b2 05 07 3f d0 ec 2a c0 41 57 32 ee 1b 8e 2b c0
       -13.462526292426308 -13.777556842465517
000120 90 1e c9 d2 39 b8 25 c0 69 95 ad b2 6a 42 29 c0
       -10.85981615738936 -12.629720290841492
000130 39 b3 e6 95 ee aa 2b c0 7e 5a 75 b0 2b 4f 26 c0
       -13.833851513301498 -11.154630197835328
000140 79 34 30 10 0b 2e 1a c0 c6 4c 1e 47 19 2b 15 c0
       -6.5449640778944 -5.2920886146777715
000150 10 c7 ca 8a 30 e4 13 c0 f6 29 19 e5 c4 cd 02 c0
       -4.972841423632204 -2.350473203497354
000160 df c9 43 58 86 ab 0c c0 b9 71 f4 be d1 fa 05 c0
       -3.583752336090796 -2.7474703710888346
000170 71 a7 c3 d5 21 f9 f9 3f f1 d4 f8 13 46 e9 12 c0
       1.6233232832114164 -4.727806388914574
000180 fe cb 3f cd 44 8b 27 c0 b5 0e 16 40 f5 dd 15 c0
       -11.772009290731145 -5.466755868288307
000190 49 74 7c f0 45 1b 10 c0 5e cc c5 7b c6 fa 2c c0
       -4.026633985134205 -14.489795558829595
0001a0 95 96 d9 c4 f7 5f 31 c0 02 2c d6 a7 d6 73 2f c0
       -17.374874404070017 -15.726247067350418
0001b0 1e 8f 04 b3 a3 8c 32 c0 f5 93 c0 47 55 9f 33 c0
       -18.54937285291009 -19.62239502383814
0001c0 a8 08 e3 6f 6f 22 34 c0 51 7f 4f 10 82 7c 32 c0
       -20.134512894561936 -18.486359614761856
0001d0 f1 32 05 04 5e 46 31 c0 4d 6c 11 bf ac f8 2c c0
       -17.27487206580094 -14.485692950131261
0001e0 f7 62 fd 78 8c 13 29 c0 68 2d 89 c2 38 f4 2b c0
       -12.538181096011142 -13.97699554371384
0001f0 03 6a 0d 5e 3e 77 29 c0 d1 09 22 c6 cb be 23 c0
       -12.73289770044085 -9.872648421912261
000200 dc 09 dd 70 81 c0 21 c0 81 44 e9 35 05 fd 20 c0
       -8.875987555486908 -8.494180378651665
000210 54 2c 91 0f 4b 50 24 c0 5f 89 41 00 31 75 25 c0
       -10.15682266852506 -10.728889472961496
000220 91 9f 41 1f 71 d5 23 c0 8c 5f f1 7e 3f f0 29 c0
       -9.916878678093584 -12.969234435047632
000230 fe 0c 4e d7 86 dc 2e c0 c6 0b 68 95 44 7c 29 c0
       -15.430716255452804 -12.742710751486708
000240 34 0b 12 33 4d cc 29 c0 9b c1 a1 22 ed 74 2f c0
       -12.899026485397918 -15.728371698613776
000250 79 c8 e1 66 4b 32 23 c0 fd f2 57 e3 08 ac 10 c0
       -9.59823152071134 -4.168002655261032
000260 e9 34 c7 c6 14 ba 1f c0 99 61 1e e8 7f 03 11 c0
       -7.931719880970584 -4.253417612890552
000270 19 cc 2f 76 c7 69 00 40 55 02 d0 77 c9 93 fc 3f
       2.0516499741875234 1.786080806749074
000280 c3 9f aa 46 d1 9c f3 3f 4b 95 5c 7f 9b 38 05 c0
       1.2257855186853568 -2.652640337956347
000290 4d a8 76 4d 3b 0a f1 3f f8 59 1a e4 32 7f 13 40
       1.0649979616087137 4.874217571361889
0002a0 72 ff 79 21 0c 17 07 c0 c1 44 9c e9 39 16 20 c0
       -2.8862536063533577 -8.043410587621453
0002b0 24 59 a2 25 a2 19 0b c0 8b 4a dc dc 55 8b 11 c0
       -3.3875163021249524 -4.386069727845675
0002c0 17 81 9d cb b4 0e 2e c0 9b 4a b9 53 5d 29 2e c0
       -15.028723109222978 -15.080790153854926
0002d0 1b 4c fe 85 03 c5 20 c0 0a 8f 50 8b 80 9c 28 c0
       -8.384792506496572 -12.305668214401084
0002e0 08 d1 38 77 74 f0 24 c0 9c 25 8b e1 89 0b fc bf
       -10.469638562856304 -1.7528170404715189
0002f0 45 62 d8 7c 62 96 06 c0 91 1b 8f 8c 05 4f 17 c0
       -2.823430037835609 -5.827169605478859
000300 f7 ea 75 92 6b 4e ff bf 2a a8 14 f3 a4 2c fb 3f
       -1.9566455575101693 1.6983994956340305
000310 c6 44 11 82 18 05 17 c0 57 c9 eb ef a1 3a 26 c0
       -5.754976303390498 -11.114516732723741
000320 e7 bb 5e 5d c2 c1 13 40 5f 8a 44 c6 3c 2b 06 40
       4.9392180050917665 2.7711120118777184
000330 02 84 9e da 11 74 0c c0 3a c9 ce a0 ec 43 16 c0
       -3.5566746787667407 -5.56633235227701
000340 df a5 6f bb c9 8c 16 c0 48 a8 d7 aa 0a 82 0e c0
       -5.637488297166299 -3.8134969088614845
000350 c7 c5 12 21 b2 e9 0c c0 1f f6 9b 87 11 fc 00 c0
       -3.614109285722154 -2.123080310294213
000360 91 4f c7 e5 a6 02 e1 3f 4a 2b 4b d4 5e c5 1a 40
       0.5315737235891779 6.692744557464559
000370 84 c9 55 16 9d d3 29 40 08 80 8f c7 2a 20 2b 40
       12.91330785557944 13.56282638193808
000380 58 6a 14 b3 70 e1 28 40 91 a1 5d fc 51 8e 2f 40
       12.440312954179873 15.77796925204237
000390 ba 01 d0 ff b6 37 33 40 31 35 66 22 37 c3 31 40
       19.217636097224137 17.762560033753463
0003a0 7f af eb 51 cf 5c 31 40 c8 97 3b a4 29 76 2b 40
       17.36253845218698 13.730786449694179
0003b0 64 05 80 68 2b a3 2b 40 59 4d 06 34 1a ad 33 40
       13.818690553309985 19.676181079424484
0003c0 e3 ac 45 f1 c9 83 33 40
       19.514800147543507

roll.weight f8 [1, 1, 101]
000000 52 97 6a b5 ea bc ec bf 9e 95 fd 17 b4 88 fc bf
       -0.8980611365593438 -1.7833748757487693
000010 2b 6a a2 9e 2e ce fa bf b2 99 5e 0f 4b 18 f9 bf
       -1.675337428727867 -1.5684309578297015
000020 4c 72 2c 74 70 54 f7 bf 3c 66 bd 9d 67 f5 f5 bf
       -1.4581150568038934 -1.37241326920629
000030 2d c8 ec 8d e7 53 f4 bf ad b7 ee 2b 33 f1 f2 bf
       -1.2704844993536526 -1.1838866916764161
000040 ea 02 8a b7 4c 91 f1 bf 9a b8 a5 9f ef 39 f0 bf
       -1.0979735536095014 -1.014144538519338
000050 54 5b 1e 23 39 0f ee bf 2b 9a 61 3f c7 06 ec bf
       -0.9393582998189722 -0.8758274305262764
000060 6d 0a 15 d8 96 e5 e9 bf 0a a0 5c 00 b5 09 e8 bf
       -0.8092760296206741 -0.7511849410120714
000070 4f 37 3c cc 9c 69 e6 bf 61 8f 34 72 2e 4e e5 bf
       -0.7003921498269196 -0.6657936316082492
000080 c8 6e ea af 38 eb e4 bf 10 53 39 e5 70 26 e5 bf
       -0.6537135539869832 -0.6609425045995483
000090 f2 4a 8e 7c 2c 7d e5 bf ac b6 95 7c d2 2f e6 bf
       -0.6715300019007755 -0.6933376725480307
0000a0 de cd 43 3a d0 34 e7 bf 85 31 48 1b f2 11 e9 bf
       -0.7251969469056652 -0.7834406407214806
0000b0 90 10 63 cc fa 96 ea bf c3 ff c2 ea e2 c9 eb bf
       -0.8309301368649518 -0.8683943352880238
0000c0 ba 2f 68 2a 78 01 ed bf d2 30 45 5b ef 3d ee bf
       -0.9064293697606367 -0.9450604231474478
0000d0 63 42 bb 4e 8a e9 ee bf 0a 89 15 b9 b9 d1 ef bf
       -0.9660083329891446 -0.9943512549328102
0000e0 07 76 5b 3f 23 43 f0 bf fa 22 ea ba fa 2a f0 bf
       -1.0163910365002964 -1.0104930211402334
0000f0 f0 8c 5b 35 ac 17 f0 bf dc 0f 64 fe 7f cc ef bf
       -1.0057794651300433 -0.9937133759090062
000100 12 56 f9 17 f5 a2 ef bf fc b2 a6 aa cb cd ee bf
       -0.9886422603837579 -0.9626215298681866
000110 a5 6f f0 37 2c 5e ed bf e1 43 4d 7c 48 92 eb bf
       -0.9177456944048471 -0.8616068294305671
000120 06 71 3a fe 52 f4 e8 bf ea 32 9f 3c b5 95 e5 bf
       -0.7798247304340584 -0.674524897005168
000130 20 01 01 a2 4f 11 e1 bf ac a1 74 6a 18 5e d8 bf
       -0.5333631672038202 -0.3807431258778944
000140 95 7f 26 22 11 22 cb bf c2 5e 4e cf 1a ac 93 bf
       -0.21197714011668425 -0.019211214926683658
000150 3d 7c 93 e2 36 8c c9 3f 29 29 0e 54 a4 6d da 3f
       0.19959150374686088 0.41294201096083555
000160 a1 f8 7a 84 bc 9a e4 3f 42 ee a6 f5 08 49 ec 3f
       0.6438887202746352 0.8839154050724078
000170 7f f8 74 82 28 d2 f1 3f f4 a7 e6 c6 d3 35 f5 3f
       1.1138081642125426 1.3256414193697283
000180 34 2d 64 b0 dc 9f f8 3f 18 fd b8 e4 20 76 fb 3f
       1.539028824833463 1.7163399633862522
000190 83 7d 4b 80 0f d9 fd 3f 59 40 51 64 0a e2 ff 3f
       1.8654932986754325 1.9926856917045568
0001a0 88 51 49 8d ff c9 00 40 6f bb 3f 64 35 56 01 40
       2.09863195781708 2.167094023890449
0001b0 99 55 f8 83 fe c2 01 40 03 1c f4 f5 d1 fd 01 40
       2.220212012306274 2.2489356246110233
0001c0 13 db b7 e4 60 26 02 40 5a c5 26 b3 17 22 02 40
       2.268739497052033 2.2666467663008634
0001d0 c0 8f 01 a9 bb 00 02 40 90 c3 a2 65 f6 c1 01 40
       2.250357933387903 2.2197082462593656
0001e0 67 2c eb 1b f0 38 01 40 41 85 46 0a b4 b8 00 40
       2.1528017216819992 2.0901871493121296
0001f0 84 ae b1 8d 93 23 00 40 89 5b 14 8e 71 9f fe 3f
       2.0173712797021057 1.9139266538602178
000200 b1 3c db c9 fe b7 fc 3f 30 a2 dc fd 41 85 fa 3f
       1.7949207196250365 1.6575336376646526
000210 86 cb 85 b0 31 ff f7 3f 24 8e 13 dd 23 45 f5 3f
       1.4998032470145701 1.3293799052997963
000220 cd 60 cd ed 64 99 f2 3f 43 97 e5 58 a7 06 ef 3f
       1.1624497689390865 0.9695622192636865
000230 c3 cd b3 89 40 bf e8 3f ab 56 60 14 b6 89 e3 3f
       0.773346203756255 0.6105604551291511
000240 73 0b de bd 9c b5 dc 3f 44 f6 df ae b1 43 d3 3f
       0.44858473340735044 0.3010067184221479
000250 93 1a 12 a2 65 8f c6 3f 72 c6 40 f9 00 6f b7 3f
       0.1762511292801788 0.09153753361968045
000260 06 e6 9e 0e 69 72 77 3f 8a 96 a9 44 43 8a ae bf
       0.0057243446153108 -0.05964861119427407
000270 ed 3d e0 58 0f d9 bb bf 71 db 47 9b 03 e3 c2 bf
       -0.10878082198927759 -0.14755292017045066
000280 d3 fe 37 7c 7e 19 c6 bf 1a 10 65 d2 b9 23 c8 bf
       -0.17265301766746308 -0.18859026692564457
000290 91 91 3e 5e a0 29 c9 bf 77 ed d8 6e 3b 0f c9 bf
       -0.1965828380754258 -0.1957773486372891
0002a0 73 5e d4 8f 21 72 c8 bf 85 1e 03 f1 87 77 c5 bf
       -0.19098300478866612 -0.16771029728100842
0002b0 46 72 52 f9 5a 97 c1 bf bd 31 f2 19 8b 9e bc bf
       -0.1374314992325642 -0.1117941797585393
0002c0 35 df e0 3f 25 a5 b5 bf 92 ac a3 bb b0 76 ab bf
       -0.08455117044001954 -0.05363991060752328
0002d0 e4 78 7b 0b 8f d4 9b bf 23 df c9 50 51 29 82 bf
       -0.027178034854721825 -0.008867869642230247
0002e0 24 1a d8 7e 7e f0 5f 3f 5b c7 92 84 c6 94 88 3f
       0.001949428110835102 0.012002516671006871
0002f0 7b 4a 90 82 97 f6 94 3f fe 78 88 42 0f e9 95 3f
       0.0204719232024879 0.021396864353044436
000300 18 63 c8 a0 da 43 88 3f 52 1e 79 04 c1 5d 88 bf
       0.011848171264362814 -0.011897571515091663
000310 26 5e 4b 06 6f 80 9b bf 89 7a 05 b5 8c bc a7 bf
       -0.02685712314527513 -0.04636039457067393
000320 4d 57 bc ad da ea b1 bf
       -0.06998984090418255

sub_features.weight f8 [15, 3, 21]
000000 20 26 fc 3e 95 a4 fa 3f 0f 8b 04 89 d4 89 f4 3f
       1.6651813946103928 1.2836499550109612
000010 db e9 15 bb 22 03 f1 3f 10 b7 70 9b 3f c1 e7 3f
       1.063265543749927 0.7423399005835751
000020 44 f9 2b 5c f3 51 e9 3f 56 3c 87 74 61 ce e8 3f
       0.7912537384252478 0.7751929546301521
000030 4e a4 85 39 25 f8 e4 3f ba 58 d7 51 bc 92 ed 3f
       0.6552911876179992 0.9241620634518519
000040 2a 02 4d 6a 35 3a f2 3f 20 38 37 2c 39 f4 f4 3f
       1.1392110969901617 1.309624836652354
000050 d4 24 d4 ae 9f dc f6 3f 52 69 73 f9 21 0d f8 3f
       1.42886322300392 1.5032062286541827
000060 80 7a 3e 71 fc c1 fb 3f 2c cf a8 4f e1 92 01 40
       1.7348598884197202 2.196718809451246
000070 29 42 6c 73 f6 e7 ff 3f ed 18 ff bd 47 fe 00 40
       1.9941315182405879 2.124160274836973
000080 00 94 aa df 76 cb 01 40 91 95 c7 1d 63 98 03 40
       2.224347827332622 2.4494077993901517
000090 a7 6f b7 dd cd a7 01 40 0a 13 f8 0c ad c6 01 40
       2.206935627136733 2.222009755440358
0000a0 b9 5e 6e 47 44 bb 00 40 8d 8d 9f e8 a1 e4 fe bf
       2.0914388256604437 -1.9308184706540914
0000b0 8b df 49 91 91 a7 e8 bf 1f ca 4f f2 c0 3b f6 3f
       -0.7704551541964845 1.3895883050250928
0000c0 f7 4b 3e 1e e5 a0 01 40 cd 7c d1 ad a8 81 d4 bf
       2.2035620081674057 -0.32041375135845557
0000d0 4c 04 f4 21 4e ed 00 c0 b5 5a 58 ce fa 34 d4 bf
       -2.115871682414342 -0.3157336249436569
0000e0 2b 92 26 f6 f4 c8 0e 40 d0 c8 74 77 d2 07 dc 3f
       3.848123477031796 0.43797742524760697
0000f0 bc 8b 6e 27 b8 80 a1 bf 45 8f b1 4a d7 01 00 c0
       -0.034185175717787314 -2.0008989177166847
000100 c5 4a d6 22 4e 44 05 c0 a6 f4 0c 06 ac c7 06 c0
       -2.6583521577498197 -2.8474960777953866
000110 c2 d5 2c 21 ac 17 fe 3f 86 be 81 27 dd 7e 0a 40
       1.8807793899444367 3.311945255896549
000120 e5 93 25 2e 23 62 fe 3f b0 bb fa a1 cd 95 e4 3f
       1.8989593317612556 0.6432865298901245
000130 6b b8 78 b3 23 74 f5 bf 15 8a 66 07 30 62 03 c0
       -1.3408543596847504 -2.422943170372728
000140 d8 27 b4 46 b9 14 d5 3f 8a 92 89 59 4a 7c e4 bf
       0.3293898764101164 -0.6401721714760964
000150 ff 52 ba 94 31 d2 05 40 0b be 3c 68 31 4e 07 40
       2.727633630691684 2.913180174211225
000160 f0 66 e0 ef c1 83 be bf 66 51 b2 5d b4 59 00 40
       -0.1191979609142455 2.0438010520976375
000170 cf 3b 6c 50 d9 66 00 40 0f 76 b6 0b 1f 57 f1 bf
       2.050219181349781 -1.0837698419121613
000180 19 ef b0 a4 1c ac f6 bf 2e 6c 2f 70 67 84 c6 3f
       -1.4170195039031965 0.17591565110964907
000190 f4 af 18 2f 4c 46 f3 3f 77 eb ed 47 cb ab f7 3f
       1.2046624984459386 1.4794419107190302
0001a0 ed 3e 29 a5 1d 92 b5 3f 53 29 5f 9b b0 bd fe bf
       0.08426080019239253 -1.9213110036094647
0001b0 ed a7 d9 5c 8b b7 f1 bf fb 02 81 e7 51 78 06 c0
       -1.107310640998999 -2.8087499700781087
0001c0 ce 7d 76 9c 6c 39 10 c0 87 f8 8f d8 b3 6e d0 3f
       -4.056078381282942 0.25675674580259805
0001d0 69 78 3b c2 cd eb 06 40 2d 77 78 35 66 9c c4 3f
       2.8651385473631774 0.16102292643420793
0001e0 e4 01 85 93 4c 9b ee 3f 3c 56 fb d0 48 96 10 40
       0.9564574128381165 4.146762147274384
0001f0 fe 8c 5d a0 cf de d2 3f 93 0f 04 12 b5 4b 15 c0
       0.2948493066853216 -5.323932916162351
000200 65 ba ab 7c 24 73 16 c0 52 0d b4 a1 cc eb 17 c0
       -5.612443874341442 -5.980272795309547
000210 10 b8 29 0e 02 ac 18 c0 3c 55 fc 32 e3 c8 18 c0
       -6.167976590439153 -6.196179196025067
000220 71 cc ad 9c 56 fa 19 c0 0d e0 11 fc f6 bd 19 c0
       -6.4944710236624 -6.435512484160438
000230 56 39 19 f6 ba 0c 19 c0 23 ef 75 62 0a a8 18 c0
       -6.262431950845288 -6.164102114151123
000240 2c 00 f2 33 14 c5 17 c0 c8 68 0a 26 e9 30 16 c0
       -5.942459880490826 -5.547764391312917
000250 4f ce 78 53 2a ed 13 c0 6e 48 a2 03 48 91 11 c0
       -4.981606773613364 -4.391876274852718
000260 7b e3 a0 34 a7 be 0d c0 05 0a f3 e5 fd 66 07 c0
       -3.718092356834345 -2.925288959960428
000270 60 35 25 87 ef f0 01 c0 48 3c e3 fc cd 1b fc bf
       -2.2426443632345325 -1.7567882421897298
000280 a9 1f b1 00 84 8a f2 bf 44 85 af 1c 01 bd e7 bf
       -1.1588172938372543 -0.7418218193308026
000290 20 a6 52 91 7b 0d bf bf 2f 20 ff e9 ea 00 ca 3f
       -0.12129947946473196 0.2031530039369058
0002a0 62 15 0a a4 1d e2 dd bf d3 9b dc 6e 0b 6c c8 bf
       -0.46692601222487984 -0.19079726136371153
0002b0 84 15 e8 3c 4a fc cb 3f a8 6b 9e a1 4f 9f e4 3f
       0.21863677953676242 0.6444471508615282
0002c0 2b 45 ac 6c ba bc cf bf 08 33 a0 ea c1 87 c9 bf
       -0.24794702822013312 -0.19945548969590043
0002d0 8c 6f 90 d5 90 67 cc bf 4b 46 71 c3 3e 7b d3 3f
       -0.22191057613315157 0.3043972881906469
0002e0 13 54 8b 7e 47 92 b0 3f ef 2e 7a a9 a5 40 e1 bf
       0.06473204459628361 -0.5391414938071345
0002f0 2b 16 d9 53 ab 6e e4 3f 2a ce f6 3e 2d c9 c7 3f
       0.638509429708113 0.18582692694109088
000300 c5 a1 56 dd 54 49 d0 bf 7a d7 cc dd 4b 71 dd bf
       -0.2544757997043486 -0.4600400606171814
000310 c7 d4 36 c4 76 4f d2 bf 88 19 c4 cc ae c5 d6 3f
       -0.2861000934747832 0.35581560131722556
000320 ad 83 90 04 e1 66 d2 3f 2e e0 7b 4c 48 2f d7 3f
       0.2875292343688283 0.36226088971261816
000330 c1 64 f1 8e 2b c3 eb bf 65 ea 99 37 75 03 ba 3f
       -0.8675744811872833 0.10161526305629705
000340 ca a8 64 7d e8 eb dc 3f 19 ef 5a 9e 84 c4 f2 bf
       0.4518986916106199 -1.1729780374288963
000350 02 63 26 e5 45 05 cf bf b2 91 95 9c 63 77 da bf
       -0.2423484200378639 -0.413536932863532
000360 a6 db d2 fe 9e 51 c6 bf 78 f5 b6 7f d8 5c d6 3f
       -0.17436587755738947 0.3494168517316534
000370 be b4 71 5e a9 61 ba bf 0b a5 4d 5b 57 0b c7 3f
       -0.10305269771352507 0.18003360708397795
000380 f2 78 35 1c a6 94 a9 3f c0 ee 4d ce 33 d1 c5 3f
       0.04996222586008682 0.17044684956987588
000390 b9 0e 88 d9 b5 f6 c6 3f 23 4d b2 1d 71 f6 e5 3f
       0.1794040023961452 0.6863332347878991
0003a0 e5 1e b1 28 69 38 ca 3f 19 47 d4 2c 27 a7 e0 bf
       0.20484652029903497 -0.5204044223375802
0003b0 08 10 35 6d 6e 28 d7 3f ce 79 2b e7 fc 89 de 3f
       0.3618427340009025 0.47717211318186237
0003c0 54 0c 5f 82 f7 ec fa bf c3 2f 67 de f4 1d f1 bf
       -1.6828532307270239 -1.0698136031742116
0003d0 f8 7e d0 72 1e bc d1 bf ad 09 89 44 18 20 e7 bf
       -0.2771068688616505 -0.7226678217487482
0003e0 33 b0 30 83 e5 32 d8 bf a5 dd 37 ce a5 c8 e0 bf
       -0.37810647784749846 -0.5244931247424814
0003f0 22 60 bc 79 bf 06 ff bf 65 7e 4c 42 55 21 02 c0
       -1.9391474490457843 -2.266275899848369
000400 c1 80 ac dd 8c 6e 02 c0 d9 c9 f7 a0 0b f6 02 c0
       -2.303979617907402 -2.37013936763945
000410 b5 06 d2 e3 08 f0 02 c0 13 b7 d3 32 29 28 05 c0
       -2.367204456183425 -2.6446098299846965
000420 d2 bf 5d 07 e8 b7 06 c0 82 db ed a0 20 c3 08 c0
       -2.8397980285153404 -3.0952770779217085
000430 e6 de 1e c3 6b e5 07 c0 b6 a6 45 8f f8 06 09 c0
       -2.987021946315383 -3.12840377742108
000440 31 ed 7c 71 78 05 0a c0 24 4b 3e 7a 00 10 0c c0
       -3.2526711336373855 -3.507813410783813
000450 01 f9 d6 5c 79 54 0b c0 f5 a2 71 f2 86 26 0b c0
       -3.4162471058945134 -3.3938120785645602
000460 f7 ab f2 0d 04 9c 08 c0 3d 38 82 8f 99 24 06 c0
       -3.076179608314756 -2.767871018563737
000470 ec 8d 34 b9 41 01 05 c0 75 ff 36 f8 24 4c 01 c0
       -2.625613638798077 -2.1621798888954182
000480 40 5e 95 97 3c a4 fd bf d9 21 62 57 de 4a f4 bf
       -1.8525968476514123 -1.2682784474765099
000490 5a 5c ac 9e 43 fa e9 bf a6 d4 1c 13 67 a2 c7 bf
       -0.8117998217666227 -0.18464363511308085
0004a0 71 40 9a bd f0 ca eb 3f 0d 5a 24 d5 1f 5c ed bf
       0.868522997205231 -0.917495647709815
0004b0 18 53 89 45 bd 6c e0 bf 45 9d 18 26 99 c2 d9 3f
       -0.5132738454945835 0.4025023338349068
0004c0 42 37 c9 a5 1a 30 e9 3f 42 40 d5 8d 61 e7 e6 3f
       0.7871220815666009 0.715744759576417
0004d0 a9 06 1c d9 17 7f f1 bf 9a 80 0f 3a 29 0e d1 bf
       -1.0935286026801043 -0.2664893214223497
0004e0 59 1a c8 72 eb 0e d6 bf b3 a7 26 42 9c fb bc bf
       -0.34466062745233256 -0.11321426978125153
0004f0 1b 34 44 72 21 c4 f0 bf c0 2b 56 7f 6e dd da 3f
       -1.0478834594280275 0.41976511416640605
000500 bf 1c cc 9d e7 2c e8 3f 5d 47 cc 23 d1 62 ec bf
       0.7554815370539457 -0.8870626162699683
000510 83 e9 c2 c4 87 d4 f3 3f c7 cd 73 c8 78 3b f3 3f
       1.2393872915259585 1.2020194845361958
000520 41 b6 b6 da 1b 6a 03 c0 75 b6 15 e8 e8 58 0e 40
       -2.426810940457273 3.7934129840494344
000530 1e 60 d5 4a 4b 22 f3 bf c6 d4 10 66 58 41 f4 bf
       -1.1958725856002341 -1.2659534441893796
000540 d3 32 28 e7 d7 7a 08 c0 00 86 77 9f 01 55 0f c0
       -3.059982114710104 -3.9165070017195376
000550 f9 85 28 ae 80 98 e7 bf 1a 19 37 e1 0d f0 ef 3f
       -0.737366047051352 0.9980534933791063
000560 91 8a bd 80 32 5c bb bf 48 44 c6 1b 80 40 fa 3f
       -0.10687556880069794 1.6407471737804986
000570 b7 24 7f 98 df c8 03 40 5f 5a 59 09 37 6c 00 40
       2.4730827249337284 2.052839348830545
000580 ba dc 49 83 9d be f7 3f c2 59 af c5 07 e4 f1 3f
       1.4840369347055415 1.118171474654091
000590 7e dd 6b 3d 50 4c fb bf 0f ac bd db fb 6a d5 3f
       -1.706131210257666 0.3346547742755214
0005a0 42 79 34 6c 6f c5 02 40 66 7e 4f a6 34 73 81 bf
       2.3464039281381313 -0.008520518613237726
0005b0 33 2a 28 a9 74 5c 0b c0 aa 2e 92 55 1d fc fc bf
       -3.420144387758478 -1.8115514128320833
0005c0 5c 36 7c c2 d1 ff 93 3f e2 5d 35 d5 7c 02 05 c0
       0.019530560965952723 -2.626214662257312
0005d0 cc da c9 f6 97 27 0c c0 bd 5a 25 e8 21 34 e9 bf
       -3.5193328171111258 -0.7876138242816847
0005e0 18 9a 81 b5 82 44 d8 bf 8c 94 25 4f 05 46 fd 3f
       -0.3791815540811583 1.8295949069663804
0005f0 e8 c1 83 33 aa 33 ff 3f da d6 74 ed d4 8c ff 3f
       1.9501134884159175 1.971882751049114
000600 a9 78 fe de 95 3d 00 40 93 a3 50 c4 2d 26 fe 3f
       2.030071012631272 1.8843209904245881
000610 f5 bf 8a 9d 8a 53 ff 3f 54 bb cb 1a 40 34 fd 3f
       1.9578958658203167 1.825256447478485
000620 03 1f d7 05 9e e1 fb 3f 8e 73 19 e1 b9 2e fb 3f
       1.7425823429238683 1.6989077370592187
000630 cc b7 50 49 0e 0d fb 3f 6d ca d9 bc 21 8d fa 3f
       1.6906874526862223 1.6594560029012897
000640 5b 44 99 27 10 6f fe 3f b9 12 bb a8 06 a6 fe 3f
       1.9021150156807127 1.915533694366941
000650 ea b4 0a f7 ee 5b 00 40 48 96 dd 96 f1 85 00 40
       2.0448893833296227 2.065402201306629
000660 be d6 f7 f4 dd 10 02 40 d8 bf 90 60 3c 39 02 40
       2.2582358492025767 2.2779471916364677
000670 0e d7 a7 c3 3b d6 00 40 13 cb e1 24 56 44 ff 3f
       2.104606178817341 1.954183715887386
000680 c8 d2 de 59 3f a9 fe 3f 23 93 ed 41 42 cd fd 3f
       1.9163201819002769 1.8626120162309199
000690 1f c4 2c 79 f5 58 e2 bf dc 5c 42 15 7f 94 c8 bf
       -0.573359238309539 -0.1920317510418731
0006a0 d8 5a 83 d1 1f bd e6 bf 27 01 fe b1 75 19 e6 bf
       -0.7105864612629729 -0.6906078792963272
0006b0 e4 6e cc 72 71 ca df bf 53 36 30 73 89 d9 d1 bf
       -0.4967311497764355 -0.27890239952907797
0006c0 27 96 92 92 f8 7f ac bf 44 2f 15 1d 9c e1 bc 3f
       -0.05566384114471772 0.11281753263500344
0006d0 5d a4 e3 12 ad c7 99 bf cd 5e 7d 31 23 fa bc bf
       -0.025175766256243615 -0.11319179495091732
0006e0 63 7f 35 c1 19 66 e0 bf a0 ff 0e 11 67 f2 e6 bf
       -0.5124634526837152 -0.7170901616263912
0006f0 e9 c4 43 3a ab cc f2 bf 13 b1 63 f8 31 e7 f2 bf
       -1.1749679828611141 -1.181444139739203
000700 de 26 33 2d 5c 82 f5 bf 5a d4 3a e9 72 2a f4 bf
       -1.3443261876695298 -1.2603634939707917
000710 36 24 3c 8a 58 04 e5 bf 4f f9 96 b6 39 97 e7 bf
       -0.6567805004025391 -0.7372101370054142
000720 d1 c3 49 fb 06 a4 ea bf 18 cb b3 3e 41 fe e2 bf
       -0.832522860333592 -0.5935369705824511
000730 95 29 11 f9 02 21 ed bf 67 bd 92 b7 6d db d9 3f
       -0.9102797379103317 0.4040178578097397
000740 07 eb ab fb 05 22 d2 3f 99 c0 dd 0e 37 15 d4 3f
       0.28332662179279605 0.3137948651483469
000750 83 1d 0e 46 8f 3d df 3f 10 35 e5 22 93 2f e0 3f
       0.48813230363199284 0.5058074647473934
000760 02 24 47 33 00 91 ea 3f 2f c6 93 b4 b9 e5 f0 3f
       0.830200290825019 1.0560853055761859
000770 8f db bf 77 7c 05 f4 3f 4b 07 31 d2 3a 42 f8 3f
       1.2513394048416762 1.5161693773847726
000780 a4 e6 51 3a e1 39 f6 3f db 3c 2f 94 d6 d9 f9 3f
       1.3891308096048443 1.6156831539590744
000790 92 bd 20 76 8d 75 fe 3f ff c2 f1 f0 83 3a fe 3f
       1.9036993612643056 1.8892859851732167
0007a0 74 85 5f e5 cb 79 fa 3f 54 05 15 3f 76 d1 f8 3f
       1.6547354659927267 1.5511381591935178
0007b0 85 1f fa 06 69 3f f3 3f 25 4d c1 78 04 b3 ef 3f
       1.202981021169735 0.9906027182100031
0007c0 20 0c 3a 0d a9 d7 e3 3f 53 bc 71 f0 66 0b e1 3f
       0.6200757273039734 0.5326418586900082
0007d0 c6 18 0f fb 44 85 ae 3f 7c ff 1d 66 b1 15 c8 3f
       0.05961051525768961 0.1881620167368928
0007e0 e6 03 65 9d 2c 75 17 c0 9e 26 26 12 1a 5c 18 c0
       -5.864428004541855 -6.089943202570479
0007f0 6b b0 7e 3d 9c a4 18 c0 b5 b7 88 71 0e e1 19 c0
       -6.160752259118548 -6.469781660050946

comb_sub_features.weight f8 [1, 1, 5, 101, 3]
000000 e1 0a 77 45 d9 4a dc 3f e7 b6 59 8e e1 51 11 40
       0.44206840308849676 4.329961990571724
000010 d5 dd d0 ef 87 2b 0f 40 c6 e7 a6 38 cb 98 f4 3f
       3.8962553725830085 1.28730318193128
000020 48 7e 3e 89 29 a1 07 40 cd a4 65 c6 4c 8c 0d 40
       2.953692505092281 3.6935058116692745
000030 e4 ea 0e 0c 32 81 06 c0 1d 5b e1 90 85 5a 11 40
       -2.8130837385227654 4.3384001386209805
000040 1e 5b 5e 38 e0 cf 15 40 f2 50 15 bc 7f a8 f1 3f
       5.453003769644765 1.1036374423029511
000050 36 0d 25 59 9b 69 0c 40 09 99 fe 74 1b 58 15 40
       3.5515658344681027 5.336042240180412
000060 3d d8 b9 2b b1 69 9a bf 88 f9 cb 32 7f dd 06 40
       -0.025793808263607543 2.858152767991843
000070 d4 ee 58 77 31 db fe 3f 30 e7 c3 dc 34 c7 f2 bf
       1.9285139715201938 -1.1736343978540837
000080 fa ff aa dc 67 a3 0f 40 2d 5e a9 3d 95 73 06 40
       3.9547879447636634 2.8064369981109594
000090 1a 62 f7 15 c2 a8 f6 bf 23 15 70 24 dc 14 03 40
       -1.4162007196483786 2.385185513182152
0000a0 a7 8b 7d 10 30 02 12 40 32 d0 63 03 86 4a de 3f
       4.50213647619504 0.47329855280918587
0000b0 8a d0 2c e0 8d 71 f0 3f 46 b8 7b 53 ab 21 09 40
       1.0277231938207785 3.141440059865121
0000c0 0e ba 9b 91 11 2a fb bf 60 ae 6d 17 61 d2 f5 3f
       -1.697770661146595 1.363862124936439
0000d0 71 56 4a bb 72 82 fc 3f 9c 94 c2 98 4a 71 f3 bf
       1.7818476978331115 -1.2151590316000584
0000e0 e7 e3 41 0a cc 44 f3 3f 71 30 21 9a 37 8e f0 3f
       1.204296150272279 1.034720995015075
0000f0 2c 9a b4 e4 d3 82 f0 bf 5d 44 eb ad 5a f7 e8 3f
       -1.0319403585250582 0.7801946064811421
000100 6f ff a5 86 4d 4c f5 3f 07 d7 fe 26 d5 18 ed 3f
       1.331128622026849 0.9092813264494176
000110 30 10 97 4e 16 89 da 3f 50 d3 72 ba 1a 70 f2 3f
       0.4146171348077159 1.1523692401071521
000120 d9 37 fc 2b f3 52 de bf a6 3a 63 ea 3c 4d b8 3f
       -0.4738128594916567 0.09492855760911798
000130 86 9b 60 8f 4c ad a7 3f 76 84 ec ac 38 0a fb 3f
       0.04624404192173075 1.6899954562034316
000140 46 0e 6e 7f 0c c5 c7 3f 33 2a 6c f2 b6 83 f7 bf
       0.18570095274127335 -1.4696568936948438
000150 fe 1c 9d 7b 52 52 e8 3f 07 d3 db 6d 64 fa c5 bf
       0.7600490965204754 -0.1717038666171435
000160 f3 ee c9 51 7a 60 f7 bf 0a 43 d5 05 1d d3 e4 3f
       -1.4610541529536334 0.650770675079998
000170 05 1e 26 e8 d5 ed e4 bf ab b7 ca 96 31 30 e1 bf
       -0.6540326627882115 -0.5371330208924879
000180 ce d8 63 8b 3b ea e7 3f 4f bd 77 c9 b1 0f eb bf
       0.7473428461514915 -0.8456658301273964
000190 f5 bc a8 79 73 df d5 bf dc dc 23 99 b8 6b cb bf
       -0.3417633712842439 -0.21422488668006323
0001a0 c8 94 74 db 0b 30 e0 bf 05 ba f5 03 d4 c2 f0 bf
       -0.5058650289762676 -1.0475654749567422
0001b0 8c 45 b1 0a 61 80 b9 3f 59 9a 7f 23 a0 0a d1 bf
       0.09961515914007729 -0.2662735315956631
0001c0 c5 97 3e 3b 97 1e f2 bf e9 ea 79 36 dc fa 02 40
       -1.1324684442747508 2.3724903350788407
0001d0 d8 01 95 d0 20 0a a6 bf 2e 47 0c 2f 9e 9c dd bf
       -0.04304602190177648 -0.4626841983273263
0001e0 c3 4b 05 23 84 ec 02 40 9c 38 b4 8d 74 df 9a bf
       2.3654864059439844 -0.02624303927319059
0001f0 cb e4 5a 8a 65 c0 c7 bf ba 5a 64 c0 80 e4 ec bf
       -0.185558979564837 -0.902893424764293
000200 ad 9b e0 25 57 26 94 3f 4d 4d aa 06 a3 e9 de bf
       0.01967750710187104 -0.4830100598421339
000210 0f f5 fc 81 01 ab f9 bf e2 81 07 1b 45 c4 d0 3f
       -1.6042494847927775 0.2619793666799791
000220 3a 16 56 94 eb d7 e3 bf 0a 48 b4 fa 7b 3c c2 3f
       -0.6201074502175239 0.14247083417336653
000230 fc 10 68 63 fb 9c b9 3f 94 9d ab b1 cf e8 c6 3f
       0.10005160500447013 0.1789798371821517
000240 11 17 43 14 07 51 05 c0 2f ee 1d e0 de 85 e5 3f
       -2.6645642836546206 0.6725916268619069
000250 54 23 f3 3e 8d 06 f5 3f c6 44 a1 09 2b d1 ff bf
       1.3140995463347354 -1.9885664344949858
000260 9f 6f a6 03 f1 76 cd bf 3b a0 ae 03 99 16 01 40
       -0.23019230535726096 2.1360340392748447
000270 61 bb 3e 43 20 ac f8 bf 3c 08 07 58 fe 63 df bf
       -1.542022955585445 -0.49047812076981123
000280 de fd b3 74 b5 57 ff 3f 02 d6 3f 40 6a 3f 04 c0
       1.9589132841791677 -2.5309643764001075
000290 11 5a 7f d2 ef 70 f0 3f 87 0b 5f 34 f5 d4 c6 bf
       1.0275724623257967 -0.17837395722571278
0002a0 71 ad ac a2 70 1c ef bf ed 2f 3c 5c 53 f9 ee bf
       -0.9722216775166271 -0.9679352570979042
0002b0 b8 c9 f7 4d 60 aa 05 40 6b fe 00 46 67 d1 eb 3f
       2.708191498875035 0.8693119399321864
0002c0 01 3c 64 db 9f 39 f1 bf ba bc 33 ab 1b c6 fd 3f
       -1.0765684671384863 1.8608662307340595
0002d0 1c 0d eb 9c 0a 1f 07 40 e6 6b 95 01 3c 47 e1 3f
       2.8901569613677918 0.5399456053668217
0002e0 b5 cf 58 d3 32 03 0e c0 06 44 a1 ed c4 43 06 40
       -3.751561785838897 2.783090454563083
0002f0 65 3b 61 bd 98 ba e1 3f 20 df 83 3c 89 47 f1 bf
       0.5540279101204361 -1.0799648631927496
000300 8f ca df 8b d1 04 f2 3f b5 73 5c 52 fb 8d c6 bf
       1.1261764015040716 -0.17620793839969698
000310 38 88 2d da 65 43 01 c0 55 7c 19 f4 15 6d e0 bf
       -2.157909111513643 -0.5133161323136713
000320 19 a2 29 c8 45 84 9a bf 7d f5 62 2a 47 74 fe bf
       -0.02589520487018335 -1.9033881812786995
000330 0e fc 0f a4 27 bc e3 3f 91 24 51 91 18 2a f0 3f
       0.6167181209892776 1.0102773357814707
000340 26 1d d0 5d a2 ed ff bf 37 42 58 aa e3 a7 ba bf
       -1.9955161728447108 -0.10412428768928171
000350 fd b8 13 b6 00 3f a7 3f fb 3e 3c 6d c6 e5 d7 3f
       0.04540254805202613 0.3733993593932465
000360 84 a1 06 26 a0 e0 07 c0 7f e2 6f a6 75 fe bf 3f
       -2.984680459096298 0.12497649491695915
000370 46 56 b3 bf 89 55 e9 3f a8 9c 97 ad ce 95 ee bf
       0.7916916603232458 -0.9557870283578227
000380 6c bd 70 ea 34 51 f2 3f 3e 73 a9 a8 81 33 f6 bf
       1.1448258550479649 -1.387574824176411
000390 3f 34 3a ee 29 c6 c7 3f 78 1e dd d8 76 74 d6 3f
       0.18573497898288058 0.3508584134874364
0003a0 c0 5f 4d 17 b0 99 f3 3f 3d c4 66 a4 6a 28 da bf
       1.2250214491123046 -0.40871683173014955
0003b0 ac 82 e3 f6 f3 95 dc bf 5c ea 10 e1 4d dc 08 40
       -0.4466524039290032 3.1075704177176657
0003c0 36 1c a6 05 38 0f f1 3f 40 48 ae ba fc ed db 3f
       1.0662155361803918 0.4364005873732175
0003d0 73 82 81 5e 07 a4 00 c0 cb 36 ec 40 d4 47 f7 3f
       -2.0800921805642303 1.4550364051860238
0003e0 65 c9 a0 5f cd 55 e3 3f 65 62 b9 9d 31 26 f7 3f
       0.604223906301098 1.4468246613597782
0003f0 81 71 dc 18 78 d6 f0 3f cf 38 e5 7c 5f fb c4 bf
       1.0523606272828092 -0.16392129515083417
000400 16 2d 1f 6e 8e ff f8 3f 2d 03 b6 91 90 e8 fc bf
       1.5623916913635347 -1.8067784969172849
000410 8e 92 a0 b6 c6 3e e1 bf 1f ce 5e 6a 8b ef e5 3f
       -0.5389131133020599 0.6854912831826744
000420 f0 a9 4e ec a7 06 f8 bf 4a e5 60 de 6e 89 b3 3f
       -1.5016249876740595 0.07631581238901677
000430 1a cb 86 aa 51 65 ec 3f 1f 93 14 c3 ac cc fd bf
       0.8873680430027406 -1.8624694462134312
000440 a4 c0 ca 89 cd 5f e0 3f 15 bc 2b 28 c7 85 f6 bf
       0.5116946879625357 -1.4076606339620004
000450 91 4e 0c d4 7c 33 f0 bf 98 1d 8b 1a f5 e3 dc 3f
       -1.0125702174308666 0.45141341774111643
000460 96 03 78 4c 22 21 d5 3f cc ba 5f 60 85 1f c6 3f
       0.33014733760506354 0.1728369446350001
000470 e0 c6 35 66 cf 15 e1 3f ad 46 93 12 13 a1 0b c0
       0.5339123722353314 -3.453649659270772
000480 cb 03 38 a8 d2 5e d0 3f 85 f0 4f 3e d7 f4 f3 bf
       0.2557875292550846 -1.247275584609299
000490 48 37 35 8e c9 ec fc 3f 80 a2 1c 35 7e 03 fc 3f
       1.807809405803214 1.7508527826959437
0004a0 14 90 27 25 95 20 da 3f 50 35 6c bc b6 24 e7 bf
       0.40823868397115004 -0.7232316665773997
0004b0 2f 40 68 26 36 47 f8 3f 2e a3 86 e6 9c e7 f4 3f
       1.5173856258661649 1.3065461163443604
0004c0 93 33 7c 20 64 e8 fa bf 55 aa 4a c2 7b 7e 04 c0
       -1.6817361134482993 -2.5617594889675197
0004d0 c8 cb 85 08 b6 e3 dd 3f 08 79 fc 96 b4 33 f6 3f
       0.46702338058747417 1.3876233957194604
0004e0 54 21 0c 42 41 4d dc bf 1b ed 19 84 f4 19 da bf
       -0.4422152657503109 -0.40783417606844957
0004f0 5c 69 48 a6 d9 13 e0 3f 96 0e 1c b2 27 90 f5 3f
       0.5024231193267883 1.3476941068082957
000500 f0 61 65 2a 16 35 e5 bf 7b e8 94 9c c1 fb e6 bf
       -0.662730295948732 -0.7182319696651257
000510 38 70 d9 18 ec 82 ef bf 61 33 b2 18 18 88 e0 3f
       -0.9847317204798918 0.5166130525918612
000520 84 68 95 b0 a6 1b f1 3f ae 5c 28 aa b7 07 02 c0
       1.0692507646367924 -2.253768281323196
000530 9f 70 f9 10 17 a2 c9 3f 7d c2 15 ff 50 e4 f6 bf
       0.20025909737421885 -1.4307413067109842
000540 22 66 4e 29 c8 11 e0 3f f9 52 01 aa 60 3d e3 3f
       0.5021706396830192 0.601242382088997
000550 1e 64 58 69 b9 cd e6 3f 21 78 2b 19 55 6c e9 3f
       0.712612825157638 0.7944741717908564
000560 32 ee 60 11 8f 59 b1 bf 4e cb dd cf 69 43 e9 3f
       -0.06777280973704405 0.7894791660204221
000570 f0 ac 30 3a dd 7e e9 bf e9 21 17 a8 48 5b e5 3f
       -0.7967363487745427 0.6673930438055865
000580 ae 32 0d cb 48 0d f2 bf 75 0a 46 bb 49 bc c6 3f
       -1.1282432491017675 0.1776210941717015
000590 d8 ac 4f 2b 75 b6 eb 3f b6 83 8d 3b 99 cf f4 bf
       0.8660226674959643 -1.3006832433968447
0005a0 90 0d 3d 9a 5a a8 f1 3f 76 ed a3 60 7c a5 f4 bf
       1.1036020302716203 -1.2904018187535633
0005b0 c2 cf 38 b9 ca ff 01 40 83 47 f6 c7 79 75 e1 3f
       2.2498983831846724 0.5455902963169453
0005c0 f2 c6 4d 0c 28 f0 d9 bf cd cc ef 5e a5 45 d6 bf
       -0.4052829857019865 -0.3480008532635111
0005d0 c0 f6 50 e7 a6 2f 00 40 47 d9 8d d7 17 9f ce 3f
       2.0232675620635234 0.2392301371107328
0005e0 ef 35 d6 d2 31 ea ed 3f 92 9d b9 ae 77 8b fa bf
       0.9348382108598211 -1.6590496850202254
0005f0 5a 01 b0 00 2e 79 f5 3f 2c 27 2a 53 76 e6 bb 3f
       1.3420848872047686 0.10898532419573986
000600 8c 93 f0 cf d9 87 10 c0 db 89 3d 7c 76 c9 db 3f
       -4.132666825350395 0.434171315506459
000610 c8 bd 48 9e 83 33 fb bf 2c 13 ce f9 c2 76 0b c0
       -1.700076692864842 -3.432989074326903
000620 08 1c 32 03 3b 89 c9 3f 0b a3 ad 79 ea eb e3 3f
       0.199500443039341 0.6225483299759572
000630 8b 6b f4 a4 b3 a1 ef bf 7b ec b7 ec 3f 23 d0 bf
       -0.988488981416013 -0.2521514713004717
000640 4a d6 a8 0a 2c a7 d3 3f c9 82 44 13 ac f5 ff 3f
       0.3070783714386819 1.997478556884902
000650 15 59 eb c9 3a 4e c5 3f 7f b0 0a 46 3d f3 cd bf
       0.16644987925855817 -0.23398557586677168
000660 f1 9e e6 36 06 21 12 40 ce 27 64 7b 9f 92 b5 3f
       4.532250268770199 0.08426853907090434
000670 92 21 3e 1d 68 f7 e0 3f 05 80 3e 57 35 2f 00 40
       0.530201012720726 2.0230509582470426
000680 3e 98 31 5d 9d 6c ce bf a6 f1 f9 80 38 1d b4 3f
       -0.23768965769267142 0.078570872772565
000690 ef 05 9c 73 f2 fc ed bf 1a cd e2 66 a2 20 ea 3f
       -0.9371273286816953 0.8164836892596299
0006a0 41 46 21 f2 2a 3f d7 bf 1b 0e 20 10 cb cf 07 c0
       -0.363230453925187 -2.9764615306646767
0006b0 47 30 2d 4e cc 06 e8 3f cf 9a bb dc 8b d3 e5 bf
       0.7508298422703853 -0.6820735274494271
0006c0 01 d4 33 4f 69 37 00 c0 f3 da 3e 4a 45 f0 d6 bf
       -2.02705633046071 -0.35841495752849467
0006d0 e6 20 70 23 c8 a4 cf 3f fc 70 e1 f5 0a 4f f4 bf
       0.24721624117251578 -1.2692975620948905
0006e0 3f fc fa 09 eb 64 c7 bf 05 d2 45 fb 4c a3 c0 3f
       -0.1827672766430357 0.12998354214836652
0006f0 9c b0 50 f4 1a 27 05 40 ad 8a f3 1b b1 d0 6e bf
       2.6440943801045034 -0.003761621395470391
000700 0d 25 02 35 b3 5e ad bf 5d 54 a9 73 1b 81 f0 3f
       -0.057363128872632264 1.0315203207039965
000710 9e a0 05 43 fc 15 de 3f 60 43 81 fb 64 0d b0 bf
       0.4700918821822685 -0.06270438328034578
000720 5a cb 7f bc c5 57 01 c0 60 18 46 a5 9f 10 c6 3f
       -2.167857620859121 0.17238231248865343
000730 0b 95 d9 68 8a a1 c9 bf 7e a6 2c 3d 32 e3 03 c0
       -0.2002423297846366 -2.4859356669665535
000740 e9 b8 1c c4 c2 f3 d8 3f 11 07 4f b7 20 88 d6 3f
       0.38987797881681147 0.35205858136406315
000750 aa 6a 02 6b 5c a2 e7 3f 5a f3 ce 1f 89 1c b3 3f
       0.7385694589641691 0.07465416933605465
000760 2b 97 bd 65 a4 9c b5 bf 90 b1 36 2c 31 94 02 40
       -0.08442141994381973 2.3223594145003474
000770 06 40 bd 32 a5 a4 cd 3f 65 af 1b fa 94 d7 c6 bf
       0.23158707597258416 -0.1784540387374093
000780 6d 6f d0 e7 5d a3 f0 3f 62 7b 34 41 13 9d d0 3f
       1.039884477161617 0.25958711021114855
000790 aa 0c 3e 48 a0 61 c0 bf 0d 4f 5b ad 8d ba 00 c0
       -0.12797931220493314 -2.0910905402651054
0007a0 bf 32 69 11 ae 5b b7 3f 39 9d 92 41 b4 54 b4 bf
       0.09124267506667659 -0.0794174823846462
0007b0 bb 2b 42 09 44 d0 fb bf 2d 18 e5 c0 e1 12 ba bf
       -1.7383461343440405 -0.10185061416004322
0007c0 da 2e 30 f3 65 50 b0 3f de 93 82 97 15 ba e4 bf
       0.06372677981579092 -0.6477153739148169
0007d0 34 8f 8f 2f 25 fc c5 3f 55 49 06 d1 e9 04 bb bf
       0.1717573625784269 -0.10554372170580469
0007e0 73 53 08 98 52 92 e0 bf 08 0d e2 0b 56 52 df 3f
       -0.5178616494546148 0.48940039787721945
0007f0 a7 3d 4f 12 8f c0 cf bf c5 33 20 2f ed ae d8 bf
       -0.24806393045444716 -0.3856766662800591
